Python/quantized_models/labtest.tflite (tflite, 42592 bytes, 18 tensors)

sequential_12/conv2d_60/Conv2D i1 [16, 3, 3, 3]
-113 46 8 -125 14 44 -101 -127
69 -23 61 64 102 -118 100 -115
-121 75 34 -29 104 124 75 15
-96 42 55 48 89 -90 77 -41
29 125 -92 108 -127 -2 -87 98
29 -105 -4 90 -109 58 30 -106
42 37 66 -122 -4 -32 23 0
31 -2 24 -3 -74 -73 -23 -81
19 -62 -127 -123 -94 -80 -32 81
114 33 99 -20 -125 96 3 61
-38 68 -104 -111 96 -14 111 -53
107 37 -127 -40 15 91 84 -112
-3 -72 -45 115 -18 -11 10 -59
-106 -6 -107 -54 110 -57 53 0
73 15 -16 -79 -67 18 -30 -107
-71 -29 -6 90 19 71 -103 89
-31 33 -7 127 -94 37 -19 -123
-47 30 80 97 94 25 101 59
-101 7 -23 -66 65 0 62 -25
-99 80 59 31 -127 -116 86 -51
78 -36 -26 122 12 -73 -115 107
10 100 -18 -37 120 -42 40 114
127 -5 -21 66 -19 -51 -29 -58
-81 -8 74 41 38 -72 121 -44
-99 -103 -64 -92 1 34 -42 -78
9 93 -111 -80 22 -51 43 123
-27 -91 127 11 -17 21 73 -26
-95 -2 50 -86 -21 109 -118 -123
89 61 41 53 -36 93 -54 -17
56 -52 14 0 53 -57 -92 52
-41 32 -127 -126 76 -116 -42 75
105 19 -86 108 34 24 -70 -64
00000000: 8f2e 0883 0e2c 9b81 45e9 3d40 668a 648d
00000010: 874b 22e3 687c 4b0f a02a 3730 59a6 4dd7
00000020: 1d7d a46c 81fe a962 1d97 fc5a 933a 1e96
00000030: 2a25 4286 fce0 1700 1ffe 18fd b6b7 e9af
00000040: 13c2 8185 a2b0 e051 7221 63ec 8360 033d
00000050: da44 9891 60f2 6fcb 6b25 81d8 0f5b 5490
00000060: fdb8 d373 eef5 0ac5 96fa 95ca 6ec7 3500
00000070: 490f f0b1 bd12 e295 b9e3 fa5a 1347 9959
00000080: e121 f97f a225 ed85 d11e 5061 5e19 653b
00000090: 9b07 e9be 4100 3ee7 9d50 3b1f 818c 56cd
000000a0: 4edc e67a 0cb7 8d6b 0a64 eedb 78d6 2872
000000b0: 7ffb eb42 edcd e3c6 aff8 4a29 26b8 79d4
000000c0: 9d99 c0a4 0122 d6b2 095d 91b0 16cd 2b7b
000000d0: e5a5 7f0b ef15 49e6 a1fe 32aa eb6d 8a85
000000e0: 593d 2935 dc5d caef 38cc 0e00 35c7 a434
000000f0: d720 8182 4c8c d64b 6913 aa6c 2218 bac0

sequential_12/batch_normalization_60/FusedBatchNormV3 i1 [16] scale=0.1330445 zero_point=-128
9.446159 18.36014 30.866323 33.12808 20.488852 11.8409605 4.9226465 33.926346
26.475855 18.892319 32.995033 9.18007 31.93068 6.1200466 15.566206 25.544544
00000000: c70a 6879 1ad9 a57f 470e 78c5 70ae f540

sequential_12/batch_normalization_60/FusedBatchNormV31 i1 [16] scale=0.011660088 zero_point=119
-1.0027676 -0.90948683 -0.04664035 0.06996053 -1.5158114 -2.4369583 -2.8800416 0.034980264
-0.0932807 -1.597432 0.0932807 -2.8100812 0.011660088 -2.262057 -2.1920965 -0.99110746
00000000: 2129 737d f5a6 807a 6fee 7f86 78b5 bb22

sequential_12/conv2d_61/Conv2D i1 [16, 3, 3, 16]
-35 -49 -41 -12 -67 -53 -36 -24
46 -50 64 -63 78 8 94 18
-115 71 -75 89 17 118 103 68
-44 74 -48 -71 20 -9 -87 -89
-72 108 25 21 -83 0 19 -11
-52 -50 28 96 4 90 -59 -25
66 -84 -24 -93 -17 5 -61 26
-91 58 82 -43 -82 16 81 96
83 -54 54 70 -22 39 -59 119
-32 -92 -34 -46 14 -63 -96 75
23 59 21 -108 87 97 -57 100
-17 -47 -75 19 14 30 37 -38
-9 -39 -66 96 -20 -61 -40 71
92 14 -42 -67 -24 -31 86 -55
101 109 -37 -83 -26 -61 -24 -1
-93 25 -9 -12 -21 -80 -76 40
61 82 -22 77 51 34 2 -32
-127 64 71 -36 75 62 -23 -2
28 73 -113 18 -45 40 60 127
73 -49 -71 -32 -70 27 53 76
29 46 -112 -49 17 -9 48 22
-39 91 26 53 75 -108 -30 -4
-72 11 -35 107 39 34 -38 -43
26 -65 45 64 46 5 -12 103
-98 -78 70 42 -65 -51 -66 11
59 38 83 16 59 -104 -101 -67
-13 -72 -108 -2 -72 -107 -81 51
61 97 40 34 87 49 4 -39
58 -5 68 62 -37 25 83 -82
-87 123 26 -48 -23 84 -83 -107
1 33 -34 4 -55 -26 -4 -9
-54 19 44 -76 -86 112 -73 -44
00000000: ddcf d7f4 bdcb dce8 2ece 40c1 4e08 5e12
00000010: 8d47 b559 1176 6744 d44a d0b9 14f7 a9a7
00000020: b86c 1915 ad00 13f5 ccce 1c60 045a c5e7
00000030: 42ac e8a3 ef05 c31a a53a 52d5 ae10 5160
00000040: 53ca 3646 ea27 c577 e0a4 ded2 0ec1 a04b
00000050: 173b 1594 5761 c764 efd1 b513 0e1e 25da
00000060: f7d9 be60 ecc3 d847 5c0e d6bd e8e1 56c9
00000070: 656d dbad e6c3 e8ff a319 f7f4 ebb0 b428
00000080: 3d52 ea4d 3322 02e0 8140 47dc 4b3e e9fe
00000090: 1c49 8f12 d328 3c7f 49cf b9e0 ba1b 354c
000000a0: 1d2e 90cf 11f7 3016 d95b 1a35 4b94 e2fc
000000b0: b80b dd6b 2722 dad5 1abf 2d40 2e05 f467
000000c0: 9eb2 462a bfcd be0b 3b26 5310 3b98 9bbd
000000d0: f3b8 94fe b895 af33 3d61 2822 5731 04d9
000000e0: 3afb 443e db19 53ae a97b 1ad0 e954 ad95
000000f0: 0121 de04 c9e6 fcf7 ca13 2cb4 aa70 b7d4

sequential_12/batch_normalization_61/FusedBatchNormV3 i1 [16] scale=0.014246783 zero_point=-128
1.6098865 2.820863 3.6329298 1.6098865 0.79781985 2.3934596 1.6811204 2.692642
1.4389251 2.1370175 1.8235883 0.4986374 1.5671462 1.1967298 1.3961848 2.5501742
00000000: f146 7ff1 b828 f63d e516 00a3 eed4 e233

sequential_12/batch_normalization_61/FusedBatchNormV31 i1 [16] scale=0.0031784417 zero_point=127
-0.6229746 -0.58483326 -0.39412677 -0.81050265 -0.6039039 -0.54351354 -0.61343926 -0.5021938
-0.54987043 -0.58483326 -0.77871823 -0.80414575 -0.6420452 -0.6452237 -0.79778886 -0.4354465
00000000: bbc7 0380 c1d4 bee1 d2c7 8a82 b5b4 84f6

sequential_12/conv2d_62/Conv2D i1 [32, 3, 3, 16]
-3 43 -108 -26 -63 -98 84 -29
-114 70 -18 25 73 -122 -103 -71
47 -51 -81 -31 -58 -90 35 21
-71 -114 -31 -14 48 57 -116 6
-14 67 -22 -44 -22 -28 7 78
54 17 47 -98 -41 -78 -37 70
58 -52 -79 17 62 -94 -38 -21
65 60 -18 -110 -123 -73 -76 58
27 -59 59 48 18 -74 -62 -37
-19 -65 -22 29 -127 -21 -41 35
-99 -71 -18 112 17 -86 53 -30
-47 -68 71 80 70 -14 125 -51
-37 57 -109 54 93 26 14 74
32 -12 61 86 62 -90 -37 90
37 96 79 114 -110 -28 30 -38
86 -106 87 -126 -24 82 -23 50
-50 96 41 10 -87 -113 118 58
59 -2 15 93 29 -107 122 67
91 -60 -109 76 23 69 29 40
62 42 80 -39 8 -47 12 76
77 -13 -113 74 -22 -73 -64 9
-28 -47 -14 -101 -62 -60 -69 -72
-73 90 2 64 -92 -26 -44 -41
-43 -43 -59 -6 57 -9 -12 58
78 -45 73 -23 -23 -40 33 47
-41 92 39 -60 58 -45 36 82
89 -13 49 -25 -11 -28 57 21
91 -14 16 26 -104 98 -54 48
-78 -26 95 50 1 -71 29 13
75 26 86 9 74 -44 35 -64
-70 -18 -20 -81 -31 -88 -127 -14
49 16 -13 -26 75 -13 26 70
00000000: fd2b 94e6 c19e 54e3 8e46 ee19 4986 99b9
00000010: 2fcd afe1 c6a6 2315 b98e e1f2 3039 8c06
00000020: f243 ead4 eae4 074e 3611 2f9e d7b2 db46
00000030: 3acc b111 3ea2 daeb 413c ee92 85b7 b43a
00000040: 1bc5 3b30 12b6 c2db edbf ea1d 81eb d723
00000050: 9db9 ee70 11aa 35e2 d1bc 4750 46f2 7dcd
00000060: db39 9336 5d1a 0e4a 20f4 3d56 3ea6 db5a
00000070: 2560 4f72 92e4 1eda 5696 5782 e852 e932
00000080: ce60 290a a98f 763a 3bfe 0f5d 1d95 7a43
00000090: 5bc4 934c 1745 1d28 3e2a 50d9 08d1 0c4c
000000a0: 4df3 8f4a eab7 c009 e4d1 f29b c2c4 bbb8
000000b0: b75a 0240 a4e6 d4d7 d5d5 c5fa 39f7 f43a
000000c0: 4ed3 49e9 e9d8 212f d75c 27c4 3ad3 2452
000000d0: 59f3 31e7 f5e4 3915 5bf2 101a 9862 ca30
000000e0: b2e6 5f32 01b9 1d0d 4b1a 5609 4ad4 23c0
000000f0: baee ecaf e1a8 81f2 3110 f3e6 4bf3 1a46

sequential_12/batch_normalization_62/FusedBatchNormV3 i1 [32] scale=0.006922259 zero_point=-128
1.0106498 0.98988307 1.0591056 1.0591056 0.8237488 0.65069234 1.5021302 0.5468585
1.765176 0.9275827 0.9968053 1.3913741 1.7167202 1.3013847 0.55378073 0.6022365
0.85143787 0.7199149 1.1906285 1.1006392 1.363685 1.0521834 0.9483495 1.0660279
1.1006392 0.934505 1.2390844 1.5713528 0.48455814 1.1352504 1.017572 0.92066044
00000000: 120f 1919 f7de 59cf 7f06 1049 783c d0d7
00000010: fbe8 2c1f 4518 091a 1f07 3363 c624 1305

sequential_12/batch_normalization_62/FusedBatchNormV31 i1 [32] scale=0.0031617898 zero_point=127
-0.6829466 -0.76831496 -0.4995628 -0.5944165 -0.73353523 -0.6197108 -0.6197108 -0.7398588
-0.33198795 -0.72721165 -0.57860756 -0.47426847 -0.5216953 -0.73353523 -0.67978483 -0.692432
-0.48691565 -0.8062564 -0.6513287 -0.6892702 -0.54066604 -0.5912547 -0.6955938 -0.6544905
-0.48059207 -0.6513287 -0.58493114 -0.5533132 -0.63235795 -0.6702995 -0.50904816 -0.5501514
00000000: a78c e1c3 97bb bb95 1699 c8e9 da97 a8a4
00000010: e580 b1a5 d4c4 a3b0 e7b1 c6d0 b7ab ded1

sequential_12/conv2d_63/Conv2D i1 [32, 3, 3, 32]
-97 -8 -84 1 2 40 23 -40
11 -66 32 -39 71 -94 -33 -9
-29 44 -12 5 -24 -26 -23 -87
57 -64 -68 9 -30 63 5 -69
-63 -5 59 -127 -103 -61 -41 -98
-21 14 -42 -17 48 -16 4 41
-48 54 18 -50 -32 -31 38 -102
58 33 -19 15 -66 64 -36 -61
-89 19 -65 -99 -76 0 4 24
-21 -105 -61 30 -7 -94 -38 26
-49 -6 83 98 43 -4 -97 -21
52 -73 4 73 -12 -53 13 3
-36 52 63 11 -71 16 -73 65
-41 -57 32 81 -76 2 -43 -86
-37 -7 33 -30 57 -40 -15 23
-11 15 4 -39 17 -58 -84 -36
82 -25 10 -96 17 35 36 -7
-70 -86 -9 -35 6 -77 -80 8
64 -25 43 37 -12 63 15 3
48 -2 -5 -50 -23 -20 83 -6
67 69 -75 27 -48 85 -21 -20
64 32 -77 -54 -70 55 82 -22
-63 27 13 -59 62 -59 -65 -75
88 -38 104 71 -61 -82 67 64
-30 -30 71 -21 -37 -73 62 75
4 15 72 -21 53 56 46 63
13 -6 -79 67 -10 35 75 53
85 -13 71 -34 -73 -73 -4 18
-65 10 45 -20 61 18 -68 81
36 6 -14 19 35 -41 -69 4
-5 -5 -110 29 -32 14 19 68
-28 56 9 25 87 31 58 -92
00000000: 9ff8 ac01 0228 17d8 0bbe 20d9 47a2 dff7
00000010: e32c f405 e8e6 e9a9 39c0 bc09 e23f 05bb
00000020: c1fb 3b81 99c3 d79e eb0e d6ef 30f0 0429
00000030: d036 12ce e0e1 269a 3a21 ed0f be40 dcc3
00000040: a713 bf9d b400 0418 eb97 c31e f9a2 da1a
00000050: cffa 5362 2bfc 9feb 34b7 0449 f4cb 0d03
00000060: dc34 3f0b b910 b741 d7c7 2051 b402 d5aa
00000070: dbf9 21e2 39d8 f117 f50f 04d9 11c6 acdc
00000080: 52e7 0aa0 1123 24f9 baaa f7dd 06b3 b008
00000090: 40e7 2b25 f43f 0f03 30fe fbce e9ec 53fa
000000a0: 4345 b51b d055 ebec 4020 b3ca ba37 52ea
000000b0: c11b 0dc5 3ec5 bfb5 58da 6847 c3ae 4340
000000c0: e2e2 47eb dbb7 3e4b 040f 48eb 3538 2e3f
000000d0: 0dfa b143 f623 4b35 55f3 47de b7b7 fc12
000000e0: bf0a 2dec 3d12 bc51 2406 f213 23d7 bb04
000000f0: fbfb 921d e00e 1344 e438 0919 571f 3aa4

sequential_12/batch_normalization_63/FusedBatchNormV3 i1 [32] scale=0.006120957 zero_point=-128
1.1078932 1.1078932 0.56312805 0.6365795 0.59985375 1.5608441 1.5486021 0.6488214
0.6977891 0.997716 0.9303855 0.6977891 1.3710943 0.84469205 0.59373283 0.72227293
0.6365795 0.56312805 0.5570071 0.72839385 1.1752237 0.99159503 0.58761185 1.1201351
0.8997807 0.5325233 0.7712406 0.57536995 0.8018454 0.67942625 0.6610634 0.569249
00000000: 3535 dce8 e27f 7dea f223 18f2 600a e1f6
00000010: e8dc dbf7 4022 e037 13d7 fede 03ef ecdd

sequential_12/batch_normalization_63/FusedBatchNormV31 i1 [32] scale=0.0044404804 zero_point=127
-0.43516707 -0.4706909 -1.034632 -0.82148886 -1.0124295 -0.41740516 -0.35079795 -0.7992865
-0.785965 -0.5106552 -0.5150957 -0.71491736 -0.29307172 -0.6483101 -1.1323225 -0.6083458
-0.6616316 -0.73267925 -0.95914376 -0.78152454 -0.52841717 -0.52841717 -0.7237983 -0.36855987
-0.36411938 -0.6483101 -0.7060364 -0.7682031 -0.67051256 -0.4973338 -0.63498867 -0.8525722
00000000: 1d15 96c6 9b21 30cb ce0c 0bde 3ded 80f6
00000010: eada a7cf 0808 dc2c 2ded e0d2 e80f f0bf

sequential_12/conv2d_64/Conv2D i1 [16, 3, 3, 32]
104 -3 57 -62 -40 -17 -1 52
24 75 -44 35 37 -18 -5 31
10 -70 19 -8 -68 -54 -49 -55
12 81 -39 -10 48 54 11 -63
-3 81 18 3 55 -52 -47 39
67 12 -7 48 -79 -28 66 -35
59 65 -18 4 -68 -12 -12 36
-36 77 19 35 40 -5 -82 60
-20 24 82 -1 -111 36 -21 82
73 -9 77 -43 34 -8 15 -32
-72 40 37 28 3 55 20 -40
-69 -40 3 45 87 31 127 -17
-11 -16 -13 -29 46 -65 -16 -14
-75 -78 63 9 -100 62 62 33
-4 67 40 58 48 -92 46 7
70 -45 -28 -14 72 63 70 31
-42 98 28 81 9 -9 -22 81
5 90 -17 -25 -85 102 67 -37
77 77 -28 75 88 16 -41 12
39 -12 -52 -30 97 57 -13 -77
75 90 72 64 -5 -70 78 -63
-17 45 -45 7 53 0 83 50
-41 -15 36 -34 -12 -28 11 19
81 20 -42 28 -27 59 68 -4
-39 23 57 -48 -68 54 52 74
22 64 38 14 -8 -28 -61 -63
-47 47 54 25 20 44 -104 66
46 36 10 3 41 2 -23 -54
78 24 62 10 83 -76 -30 -71
-82 -30 61 106 63 9 80 70
-10 -56 -18 39 -19 -25 50 -28
15 -73 52 26 2 21 -62 -37
00000000: 68fd 39c2 d8ef ff34 184b d423 25ee fb1f
00000010: 0aba 13f8 bcca cfc9 0c51 d9f6 3036 0bc1
00000020: fd51 1203 37cc d127 430c f930 b1e4 42dd
00000030: 3b41 ee04 bcf4 f424 dc4d 1323 28fb ae3c
00000040: ec18 52ff 9124 eb52 49f7 4dd5 22f8 0fe0
00000050: b828 251c 0337 14d8 bbd8 032d 571f 7fef
00000060: f5f0 f3e3 2ebf f0f2 b5b2 3f09 9c3e 3e21
00000070: fc43 283a 30a4 2e07 46d3 e4f2 483f 461f
00000080: d662 1c51 09f7 ea51 055a efe7 ab66 43db
00000090: 4d4d e44b 5810 d70c 27f4 cce2 6139 f3b3
000000a0: 4b5a 4840 fbba 4ec1 ef2d d307 3500 5332
000000b0: d7f1 24de f4e4 0b13 5114 d61c e53b 44fc
000000c0: d917 39d0 bc36 344a 1640 260e f8e4 c3c1
000000d0: d12f 3619 142c 9842 2e24 0a03 2902 e9ca
000000e0: 4e18 3e0a 53b4 e2b9 aee2 3d6a 3f09 5046
000000f0: f6c8 ee27 ede7 32e4 0fb7 341a 0215 c2db

sequential_12/batch_normalization_64/FusedBatchNormV3 i1 [16] scale=0.008208465 zero_point=-128
0.43504864 0.5007163 0.98501575 0.7223449 0.49250787 0.45967403 0.49250787 2.0931585
0.5581756 0.6402603 0.48429942 0.66488564 0.75517875 0.50892484 0.57459253 0.9439735
00000000: b5bd f8d8 bcb8 bc7f c4ce bbd1 dcbe c6f3

sequential_12/batch_normalization_64/FusedBatchNormV31 i1 [16] scale=0.00475839 zero_point=127
-1.194356 -0.75658405 -0.61383235 -0.7613424 -1.0516043 -0.58528197 -1.0516043 -0.32357052
-0.8232015 -0.66141623 -1.2133895 -0.50438935 -0.7708592 -0.98022836 -0.95167804 -0.5329397
00000000: 84e0 fedf a204 a23b d2f4 8015 ddb1 b70f

sequential_12/dense_36/MatMul i1 [128, 16] scale=0.002306758 zero_point=0
0.085350044 0.032294612 0.11764465 -0.27450418 0.073816255 -0.046135157 -0.13148521 -0.14301899
0.018454064 -0.16147305 0.025374338 0.1153379 -0.19146091 0.16839333 0.0438284 -0.09688383
-0.1591663 -0.076123014 -0.1153379 -0.14763251 0.016147306 0.18915415 0.08996356 0.006920274
-0.13609871 0.059975706 0.12687169 0.064589225 0.11072438 -0.20760822 0.062282465 0.2698907
0.023067579 -0.11764465 0.12456493 -0.21222173 0.1753136 0.19838119 -0.050748676 0.0438284
0.19607443 0.011533789 0.10149735 0.13609871 -0.07842977 0.05536219 -0.12456493 -0.07842977
0.083043285 0.016147306 -0.18915415 0.020760821 0.12456493 -0.14301899 -0.050748676 0.08996356
-0.13840547 -0.11764465 0.059975706 0.048441917 -0.092270315 -0.16377981 -0.006920274 -0.092270315
0.1153379 0.11303114 -0.19146091 -0.219142 0.1591663 -0.064589225 0.16377981 -0.09919059
-0.12456493 -0.013840548 -0.18223388 -0.069202736 -0.19607443 0.10841762 -0.027681096 -0.15685955
-0.10380411 -0.023067579 0.11764465 0.059975706 0.018454064 0.050748676 0.034601368 0.020760821
0.076123014 0.07842977 0.10611086 0.032294612 0.094577074 -0.17300685 -0.25143662 -0.09919059
0.016147306 -0.16608657 0.26066366 0.18223388 0.0438284 0.19838119 -0.1591663 -0.002306758
0.22144876 -0.062282465 0.009227032 0.032294612 -0.018454064 -0.011533789 0.050748676 -0.16608657
-0.048441917 -0.066895984 0.085350044 -0.039214887 -0.083043285 -0.13148521 0.12225817 0.048441917
0.076123014 0.05536219 -0.009227032 -0.09919059 -0.2306758 -0.071509495 0.034601368 0.023067579
0.16608657 -0.18454063 0.14763251 -0.15685955 -0.029987853 0.14532575 0.05766895 -0.12456493
-0.11072438 -0.027681096 -0.048441917 0.12225817 0.22836904 -0.10841762 -0.14071223 0.076123014
0.041521642 -0.15685955 0.11995141 -0.08996356 0.020760821 0.009227032 -0.14301899 -0.14763251
0.011533789 0.066895984 0.12917845 0.21683525 0.14301899 0.064589225 -0.09688383 0.073816255
-0.15224603 0.011533789 0.10841762 -0.14993927 -0.032294612 -0.13148521 0.046135157 -0.011533789
-0.20991497 -0.12687169 -0.17300685 -0.18684739 -0.018454064 0.10611086 0.080736525 0.11072438
0.15685955 -0.14532575 0.062282465 -0.19838119 -0.094577074 -0.094577074 0.1591663 -0.09919059
0.08996356 -0.016147306 -0.10380411 -0.13148521 -0.1153379 0.12456493 -0.10380411 -0.17762037
-0.11764465 -0.029987853 -0.21222173 -0.0438284 0.071509495 -0.20530146 0.14071223 -0.05536219
-0.12687169 -0.05766895 0.002306758 0.016147306 0.066895984 0.07842977 -0.05305543 -0.083043285
0.062282465 -0.002306758 -0.16608657 0.013840548 0.034601368 0.066895984 -0.039214887 -0.023067579
0.041521642 -0.12225817 -0.22375552 0.025374338 -0.23298256 0.09688383 0.15455279 -0.039214887
0.13609871 0.2029947 -0.12225817 0.20760822 0.006920274 -0.10611086 -0.11764465 0.018454064
0.027681096 0.16839333 -0.08996356 0.05536219 0.13148521 0.14993927 0.17070009 -0.080736525
0.046135157 -0.07842977 0.023067579 0.15224603 -0.21222173 -0.071509495 -0.11995141 0.016147306
0.066895984 0.027681096 -0.13379197 -0.034601368 -0.09919059 -0.071509495 0.20530146 -0.1153379
00000000: 250e 3389 20ec c7c2 08ba 0b32 ad49 13d6
00000010: bbdf cec0 0752 2703 c51a 371c 30a6 1b75
00000020: 0acd 36a4 4c56 ea13 5505 2c3b de18 cade
00000030: 2407 ae09 36c2 ea27 c4cd 1a15 d8b9 fdd8
00000040: 3231 ada1 45e4 47d5 cafa b1e2 ab2f f4bc
00000050: d3f6 331a 0816 0f09 2122 2e0e 29b5 93d5
00000060: 07b8 714f 1356 bbff 60e5 040e f8fb 16b8
00000070: ebe3 25ef dcc7 3515 2118 fcd5 9ce1 0f0a
00000080: 48b0 40bc f33f 19ca d0f4 eb35 63d1 c321
00000090: 12bc 34d9 0904 c2c0 051d 385e 3e1c d620
000000a0: be05 2fbf f2c7 14fb a5c9 b5af f82e 2330
000000b0: 44c1 1baa d7d7 45d5 27f9 d3c7 ce36 d3b3
000000c0: cdf3 a4ed 1fa7 3de8 c9e7 0107 1d22 e9dc
000000d0: 1bff b806 0f1d eff6 12cb 9f0b 9b2a 43ef
000000e0: 3b58 cb5a 03d2 cd08 0c49 d918 3941 4add
000000f0: 14de 0a42 a4e1 cc07 1d0c c6f1 d5e1 59ce

sequential_12/dense_37/MatMul i1 [32, 128] scale=0.0026577823 zero_point=0
-0.029235605 -0.031893387 -0.031893387 0.09568016 0.15946694 -0.015946694 -0.061128993 0.02392004
0.08239125 0.09833795 0.25248933 0.12757355 0.07707569 0.15415138 -0.07973347 -0.05847121
0.09833795 0.063786775 0.20199145 -0.015946694 -0.061128993 -0.13288912 0.0 -0.09833795
0.050497863 0.013288911 0.23122706 0.26577824 0.10631129 -0.2099648 0.06644456 -0.039866734
0.09302238 0.12757355 -0.14883581 0.16212472 -0.16212472 0.124915764 0.0053155646 0.20464924
-0.124915764 -0.050497863 0.08504903 0.042524517 0.03455117 -0.039866734 -0.037208952 -0.074417904
0.021262258 0.09833795 0.11960021 0.0903646 0.074417904 0.063786775 0.0451823 -0.04784008
-0.037208952 0.111626856 -0.031893387 0.021262258 0.026577823 0.1514936 0.09833795 -0.09568016
0.2710938 0.02392004 0.055813428 -0.21793815 -0.05847121 0.02392004 0.23388484 -0.20730701
-0.15415138 0.021262258 -0.1355469 -0.21793815 0.06910234 0.24185818 -0.018604476 0.103653505
0.1514936 -0.053155646 -0.20464924 -0.08239125 -0.09568016 0.18338698 0.10896908 0.21528037
0.14617802 -0.14352024 -0.10896908 -0.061128993 0.039866734 -0.111626856 0.3029872 0.09568016
-0.15415138 0.103653505 -0.114284635 0.111626856 0.21528037 -0.07176012 -0.09568016 0.09302238
-0.026577823 0.074417904 0.1647825 -0.0451823 0.1807292 -0.021262258 0.23654263 0.07707569
0.018604476 -0.010631129 -0.021262258 -0.14352024 0.21793815 -0.061128993 -0.14617802 0.20464924
0.15946694 -0.055813428 0.015946694 0.1647825 0.09568016 0.07176012 -0.055813428 -0.111626856
0.11960021 -0.02392004 0.09833795 -0.10099573 0.08239125 0.026577823 -0.14352024 0.09568016
0.061128993 0.22059593 -0.021262258 -0.13820468 -0.15946694 -0.026577823 0.021262258 -0.08770682
0.08504903 -0.055813428 -0.007973347 0.09833795 0.08239125 -0.124915764 -0.17009807 -0.17009807
-0.026577823 -0.0451823 0.14883581 0.018604476 0.050497863 -0.03455117 -0.11960021 -0.14617802
0.20199145 0.122257985 0.0026577823 -0.061128993 0.15415138 0.021262258 -0.124915764 0.037208952
-0.114284635 0.103653505 0.09833795 0.1514936 -0.010631129 0.11694242 -0.03455117 -0.029235605
0.124915764 0.0 -0.11694242 0.04784008 0.04784008 0.1647825 -0.063786775 -0.17009807
0.0053155646 0.07176012 -0.09833795 -0.08770682 0.010631129 -0.10896908 -0.007973347 -0.0451823
-0.15946694 0.055813428 -0.007973347 -0.031893387 0.074417904 -0.037208952 -0.13288912 -0.037208952
-0.19136032 -0.21793815 -0.103653505 0.14352024 -0.08239125 -0.10631129 0.04784008 0.09833795
-0.03455117 -0.03455117 -0.21262258 0.0451823 -0.1514936 0.16212472 0.055813428 -0.0053155646
-0.11960021 0.1647825 -0.08770682 -0.050497863 -0.07707569 0.1807292 0.09833795 -0.007973347
0.06644456 0.05847121 0.037208952 0.0053155646 0.124915764 -0.1355469 -0.1966759 0.013288911
-0.08239125 0.19136032 -0.037208952 0.039866734 0.18604475 -0.061128993 0.19136032 -0.122257985
-0.22059593 0.17009807 0.042524517 0.018604476 0.1514936 0.06910234 -0.07176012 0.09302238
0.021262258 -0.050497863 -0.13288912 0.10631129 -0.031893387 0.06644456 0.021262258 -0.07176012
00000000: f5f4 f424 3cfa e909 1f25 5f30 1d3a e2ea
00000010: 2518 4cfa e9ce 00db 1305 5764 28b1 19f1
00000020: 2330 c83d c32f 024d d1ed 2010 0df1 f2e4
00000030: 0825 2d22 1c18 11ee f22a f408 0a39 25dc
00000040: 6609 15ae ea09 58b2 c608 cdae 1a5b f927
00000050: 39ec b3e1 dc45 2951 37ca d7e9 0fd6 7224
00000060: c627 d52a 51e5 dc23 f61c 3eef 44f8 591d
00000070: 07fc f8ca 52e9 c94d 3ceb 063e 241b ebd6
00000080: 2df7 25da 1f0a ca24 1753 f8cc c4f6 08df
00000090: 20eb fd25 1fd1 c0c0 f6ef 3807 13f3 d3c9
000000a0: 4c2e 01e9 3a08 d10e d527 2539 fc2c f3f5
000000b0: 2f00 d412 123e e8c0 021b dbdf 04d7 fdef
000000c0: c415 fdf4 1cf2 cef2 b8ae d936 e1d8 1225
000000d0: f3f3 b011 c73d 15fe d33e dfed e344 25fd
000000e0: 1916 0e02 2fcd b605 e148 f20f 46e9 48d2
000000f0: ad40 1007 391a e523 08ed ce28 f419 08e5

sequential_12/dense_38/MatMul i1 [5, 32] scale=0.003578827 zero_point=0
-0.093049504 0.27199087 0.28988498 0.06799772 0.18609901 0.27914852 0.18252018 -0.014315308
-0.032209445 0.08589185 0.25767556 0.053682406 0.10020716 0.25409672 -0.11094364 0.3292521
-0.36861917 -0.28630617 -0.017894136 -0.31135795 -0.3149368 0.26841202 0.007157654 -0.25409672
-0.36504036 -0.014315308 0.042945925 0.0393671 -0.39367098 -0.3042003 -0.12883778 0.11810129
0.06799772 0.2254661 -0.08231302 0.26841202 -0.3042003 -0.13599543 -0.10020716 -0.41514394
-0.4115651 -0.41514394 -0.3042003 -0.021472963 0.10736481 -0.35072505 0.27199087 0.25409672
0.30777913 0.12525895 -0.37219802 -0.046524752 0.24693906 -0.16820487 -0.45451102 0.28272733
0.14315309 -0.44735336 0.02505179 -0.26125437 -0.40798628 -0.032209445 -0.40082863 0.2505179
0.02505179 -0.10020716 0.1324166 0.19325666 -0.07515537 -0.15031074 0.22188728 0.046524752
-0.24336024 -0.22188728 -0.017894136 0.13599543 -0.16820487 -0.093049504 0.23978141 0.1717837
-0.042945925 0.053682406 0.16462605 -0.06084006 0.093049504 -0.23620258 -0.17536253 0.23620258
0.15388957 0.11810129 0.010736481 0.11094364 -0.2111508 -0.10736481 -0.010736481 0.16462605
-0.27199087 -0.36861917 -0.15388957 0.32209444 -0.30062148 0.29346383 0.36861917 0.22904493
-0.042945925 -0.18252018 0.3328309 -0.36146152 0.41872275 -0.13957426 0.06084006 -0.06084006
0.0787342 -0.31135795 0.33640975 -0.20041431 0.20757197 -0.08589185 -0.27199087 0.16820487
0.042945925 -0.1574684 -0.103785984 -0.12168012 0.26125437 -0.13599543 -0.32209444 -0.3149368
-0.33640975 0.12883778 0.28272733 -0.27199087 0.042945925 0.1324166 -0.042945925 0.18609901
-0.22188728 0.003578827 -0.25767556 0.28988498 0.07157654 -0.2505179 -0.0787342 -0.053682406
-0.45451102 -0.007157654 -0.15388957 -0.39009213 -0.12883778 0.22188728 0.021472963 -0.06441889
0.20757197 0.31135795 0.23262376 0.2505179 -0.31135795 0.010736481 -0.017894136 -0.3149368
00000000: e64c 5113 344e 33fc f718 480f 1c47 e15c
00000010: 99b0 fba9 a84b 02b9 9afc 0c0b 92ab dc21
00000020: 133f e94b abda e48c 8d8c abfa 1e9e 4c47
00000030: 5623 98f3 45d1 814f 2883 07b7 8ef7 9046
00000040: 07e4 2536 ebd6 3e0d bcc2 fb26 d1e6 4330
00000050: f40f 2eef 1abe cf42 2b21 031f c5e2 fd2e
00000060: b499 d55a ac52 6740 f4cd 5d9b 75d9 11ef
00000070: 16a9 5ec8 3ae8 b42f 0cd4 e3de 49da a6a8
00000080: a224 4fb4 0c25 f434 c201 b851 14ba eaf1
00000090: 81fe d593 dc3e 06ee 3a57 4146 a903 fba8
