Python/quantized_models/model3_lab_6_lr5e-04_b6_do0.3.tflite (tflite, 520968 bytes, 18 tensors)

sequential_3/conv2d_15/Conv2D i1 [32, 3, 3, 3]
000000 48 8b 8d 74 09 4c d7 56 38 01 de 51 12 ee ad 9e
       72 -117 -115 116 9 76 -41 86 56 1 -34 81 18 -18 -83 -98
000010 89 84 53 68 17 5c fc 21 c0 81 67 af ef 7f 42 11
       -119 -124 83 104 23 92 -4 33 -64 -127 103 -81 -17 127 66 17
000020 73 06 05 41 37 be e9 1b 34 e7 3a 31 ed e6 0b 8f
       115 6 5 65 55 -66 -23 27 52 -25 58 49 -19 -26 11 -113
000030 bb c1 11 9b 88 65 b9 1f f7 61 61 c9 70 19 e7 7f
       -69 -63 17 -101 -120 101 -71 31 -9 97 97 -55 112 25 -25 127
000040 72 1d da 2e c0 15 aa a6 10 30 db 26 01 4e 5c 6f
       114 29 -38 46 -64 21 -86 -90 16 48 -37 38 1 78 92 111
000050 dc dc 7c 7f 96 ce 50 2d 99 1d 6f e3 00 fe 3a ac
       -36 -36 124 127 -106 -50 80 45 -103 29 111 -29 0 -2 58 -84
000060 72 d9 2e 95 fc 15 f6 60 73 64 1e 3a 61 4f 6e c1
       114 -39 46 -107 -4 21 -10 96 115 100 30 58 97 79 110 -63
000070 15 e7 46 7f cd d7 e5 bb 4a 12 41 36 aa f9 16 45
       21 -25 70 127 -51 -41 -27 -69 74 18 65 54 -86 -7 22 69
000080 03 5b 9e f6 c0 0a 0b 9e 23 c5 eb 1a c9 79 5b 83
       3 91 -98 -10 -64 10 11 -98 35 -59 -21 26 -55 121 91 -125
000090 ed 57 74 53 ce 06 78 e5 84 41 81 f2 08 f5 42 e1
       -19 87 116 83 -50 6 120 -27 -124 65 -127 -14 8 -11 66 -31
0000a0 03 93 e7 64 ab 00 bb 2a 3a bf 81 ac f8 e7 92 64
       3 -109 -25 100 -85 0 -69 42 58 -65 -127 -84 -8 -25 -110 100
0000b0 ad d2 db 03 1c ad 22 28 e6 16 ad e8 2f 00 f6 87
       -83 -46 -37 3 28 -83 34 40 -26 22 -83 -24 47 0 -10 -121
0000c0 70 df 4f d6 18 9d a3 7a 03 be 49 c8 8e 09 9b b5
       112 -33 79 -42 24 -99 -93 122 3 -66 73 -56 -114 9 -101 -75
0000d0 81 43 51 60 6e a8 d7 b1 57 3f 23 b5 cd d2 95 71
       -127 67 81 96 110 -88 -41 -79 87 63 35 -75 -51 -46 -107 113
0000e0 b0 52 53 d3 34 6f 79 08 a3 dd 85 16 1d ce 7f e0
       -80 82 83 -45 52 111 121 8 -93 -35 -123 22 29 -50 127 -32
0000f0 b6 ca ce a7 11 fe 37 4f a8 58 b2 86 c3 36 20 2f
       -74 -54 -50 -89 17 -2 55 79 -88 88 -78 -122 -61 54 32 47

sequential_3/batch_normalization_15/FusedBatchNormV3 i1 [32] scale=0.12267439 zero_point=-128
000000 20 ff a0 9d ac 60 7c 67 05 65 77 77 75 eb 3a 1a
       19.627903 15.579648 3.9255805 3.5575573 5.397673 27.479063 30.913946 28.337784 16.315695 28.092436 30.300575 30.300575 30.055225 13.12616 22.817436 18.891855
000010 4f a9 46 74 ee 6e a0 44 7f 73 7b e2 2c 5d a6 01
       25.393599 5.02965 24.28953 29.93255 13.494183 29.196505 3.9255805 24.04418 31.28197 29.809877 30.791271 12.02209 21.099995 27.11104 4.661627 15.824996

sequential_3/batch_normalization_15/FusedBatchNormV31 i1 [32] scale=0.013547633 zero_point=124
000000 36 08 80 8e 8b 72 7b 79 39 72 7b 7d 7d da 26 c1
       -0.9483343 -1.5715255 -3.4140034 -3.2243366 -3.2649796 -0.13547632 -0.013547633 -0.0406429 -0.9076914 -0.13547632 -0.013547633 0.013547633 0.013547633 -2.1947165 -1.1650964 -2.5334074
000010 78 8b 3f 7b b1 79 90 78 7c 7a 7f c8 27 45 90 a1
       -0.05419053 -3.2649796 -0.8264056 -0.013547633 -2.7501695 -0.0406429 -3.1972413 -0.05419053 0.0 -0.027095266 0.0406429 -2.4385738 -1.1515487 -0.7451198 -3.1972413 -2.9669316

sequential_3/conv2d_16/Conv2D i1 [32, 3, 3, 32]
000000 47 bd ba f5 c4 a6 5d ee 1a 5a fe 40 4c 00 49 a7
       71 -67 -70 -11 -60 -90 93 -18 26 90 -2 64 76 0 73 -89
000010 34 a7 2a 0e 43 57 0c 3b 1e bc 55 c2 1a 57 20 72
       52 -89 42 14 67 87 12 59 30 -68 85 -62 26 87 32 114
000020 62 d5 ce 21 5a a0 60 cd fe 31 8a e8 49 aa 3c 3d
       98 -43 -50 33 90 -96 96 -51 -2 49 -118 -24 73 -86 60 61
000030 1c 9c f2 37 ee 01 c3 00 18 f2 2e 69 68 ea f9 a6
       28 -100 -14 55 -18 1 -61 0 24 -14 46 105 104 -22 -7 -90
000040 2f 9c 5f 64 ca 46 de 94 ce c4 c6 11 f7 ab d7 10
       47 -100 95 100 -54 70 -34 -108 -50 -60 -58 17 -9 -85 -41 16
000050 97 42 fc 48 ef 5c a8 c9 28 5a 27 9a 51 f5 06 ca
       -105 66 -4 72 -17 92 -88 -55 40 90 39 -102 81 -11 6 -54
000060 59 a6 1e c1 4f c3 51 c3 28 47 a4 c5 22 a8 b5 e1
       89 -90 30 -63 79 -61 81 -61 40 71 -92 -59 34 -88 -75 -31
000070 e2 23 2c 2b ec 5c 2d 8d e7 f5 ef 61 03 23 0e af
       -30 35 44 43 -20 92 45 -115 -25 -11 -17 97 3 35 14 -81
000080 b6 e8 cb dc a1 c3 5a 50 1f 0f 2c 01 51 07 e0 4d
       -74 -24 -53 -36 -95 -61 90 80 31 15 44 1 81 7 -32 77
000090 48 5f f6 64 ed cd 35 33 3a 47 ea 25 45 46 db a1
       72 95 -10 100 -19 -51 53 51 58 71 -22 37 69 70 -37 -95
0000a0 21 ea a5 48 c7 32 2b b0 25 5b e1 d1 dc 1a 2d 5c
       33 -22 -91 72 -57 50 43 -80 37 91 -31 -47 -36 26 45 92
0000b0 d5 23 38 1a 41 64 b0 69 ae ab 50 59 6c c5 ce be
       -43 35 56 26 65 100 -80 105 -82 -85 80 89 108 -59 -50 -66
0000c0 c8 53 f6 09 29 ab e2 f6 96 e1 9c ef 9e 40 55 ec
       -56 83 -10 9 41 -85 -30 -10 -106 -31 -100 -17 -98 64 85 -20
0000d0 cb 3e bd 0c 29 2b 52 f7 2e ad ba 27 39 cb d9 07
       -53 62 -67 12 41 43 82 -9 46 -83 -70 39 57 -53 -39 7
0000e0 a1 b4 9f 29 a0 f2 4a 20 e6 b6 25 ab f6 e7 b9 5b
       -95 -76 -97 41 -96 -14 74 32 -26 -74 37 -85 -10 -25 -71 91
0000f0 37 6d 39 48 dd c2 15 ae 34 ab ef 27 e0 f7 a3 b8
       55 109 57 72 -35 -62 21 -82 52 -85 -17 39 -32 -9 -93 -72

sequential_3/batch_normalization_16/FusedBatchNormV3 i1 [32] scale=0.011036746 zero_point=-128
000000 1e 5c ba 10 44 f3 1b 7f 5c 1a 1c 5d c9 35 f0 24
       1.7438059 2.4280841 0.6401313 1.5892915 2.1632023 1.2692258 1.7106956 2.8143704 2.4280841 1.6996589 1.7217324 2.439121 0.8056825 1.9976511 1.2361156 1.8100264
000010 13 30 2f 39 cf 36 e6 20 04 05 c8 d5 2f 17 32 2d
       1.6224017 1.9424673 1.9314306 2.041798 0.87190294 2.0086877 1.1257482 1.7658794 1.4568505 1.4678873 0.7946457 0.9381234 1.9314306 1.6665487 1.9645408 1.9093571

sequential_3/batch_normalization_16/FusedBatchNormV31 i1 [32] scale=0.0028440575 zero_point=127
000000 c2 d8 80 e2 cc b3 e7 ea bd a0 b2 af a2 c4 c4 ab
       -0.53752685 -0.47495762 -0.7252347 -0.44651702 -0.5090863 -0.58018774 -0.43229675 -0.42376456 -0.55174714 -0.63422483 -0.5830318 -0.59156394 -0.6285367 -0.5318388 -0.5318388 -0.6029402
000010 a9 da cc ad 91 d2 a5 e8 da b2 83 a1 d7 d6 b8 b8
       -0.60862833 -0.46926948 -0.5090863 -0.5972521 -0.67688566 -0.49202195 -0.62000453 -0.4294527 -0.46926948 -0.5830318 -0.7167025 -0.6313808 -0.47780165 -0.48064572 -0.56596744 -0.56596744

sequential_3/conv2d_17/Conv2D i1 [64, 3, 3, 32]
000000 54 c7 9d 05 1b 66 0a b4 f6 ae dc ee c4 d2 62 eb
       84 -57 -99 5 27 102 10 -76 -10 -82 -36 -18 -60 -46 98 -21
000010 02 9c 0d 14 c8 10 96 4b 07 9b a4 f3 31 0c bc 42
       2 -100 13 20 -56 16 -106 75 7 -101 -92 -13 49 12 -68 66
000020 01 bf a1 3b a6 17 e2 ca be f5 fc 56 a1 e7 1b c0
       1 -65 -95 59 -90 23 -30 -54 -66 -11 -4 86 -95 -25 27 -64
000030 c3 99 2e d5 10 63 5b aa 57 5e d6 ca ca 14 30 e6
       -61 -103 46 -43 16 99 91 -86 87 94 -42 -54 -54 20 48 -26
000040 19 30 bd 26 30 3b 1a 05 1e 40 a4 81 08 bc f0 95
       25 48 -67 38 48 59 26 5 30 64 -92 -127 8 -68 -16 -107
000050 24 c8 c9 90 d8 40 ed 8e 54 c4 f4 54 fc 4f e4 5d
       36 -56 -55 -112 -40 64 -19 -114 84 -60 -12 84 -4 79 -28 93
000060 03 6c ff 53 5e d1 fd 47 c8 60 1e 1b 4b 98 e0 14
       3 108 -1 83 94 -47 -3 71 -56 96 30 27 75 -104 -32 20
000070 0d 24 a4 c1 ac 52 ba 43 bd 5a bd 18 cb 4a d3 67
       13 36 -92 -63 -84 82 -70 67 -67 90 -67 24 -53 74 -45 103
000080 d2 61 13 a5 97 cc 17 af a9 39 56 2d 16 4e a6 b4
       -46 97 19 -91 -105 -52 23 -81 -87 57 86 45 22 78 -90 -76
000090 66 31 98 95 c6 48 40 58 b8 eb 1c 58 a4 d1 9d ac
       102 49 -104 -107 -58 72 64 88 -72 -21 28 88 -92 -47 -99 -84
0000a0 f6 16 38 b3 ae e4 e6 9b 47 fa 47 05 1d 3c 1a fc
       -10 22 56 -77 -82 -28 -26 -101 71 -6 71 5 29 60 26 -4
0000b0 10 3e 97 1f c4 ba bc 43 0e ff 27 0d a3 24 5c 43
       16 62 -105 31 -60 -70 -68 67 14 -1 39 13 -93 36 92 67
0000c0 e5 38 36 f8 f5 0a 25 cb c7 dc 36 da 53 eb df e0
       -27 56 54 -8 -11 10 37 -53 -57 -36 54 -38 83 -21 -33 -32
0000d0 db ac 05 cd 34 a0 e7 0d 0e c2 aa 68 97 b9 c1 b6
       -37 -84 5 -51 52 -96 -25 13 14 -62 -86 104 -105 -71 -63 -74
0000e0 e0 51 01 f9 06 c3 f9 fe 2b be 1e 2d 0c 59 f2 00
       -32 81 1 -7 6 -61 -7 -2 43 -66 30 45 12 89 -14 0
0000f0 9d 40 ea 65 aa b2 1f 4f 42 67 de 3b 1b f6 43 21
       -99 64 -22 101 -86 -78 31 79 66 103 -34 59 27 -10 67 33

sequential_3/batch_normalization_17/FusedBatchNormV3 i1 [64] scale=0.00769837 zero_point=-128
000000 22 1d 2e cc 06 eb d1 ed fd f9 cd 06 c8 7f dd 09
       1.247136 1.2086442 1.3395164 0.58507615 1.0315816 0.8237256 0.623568 0.83912235 0.96229625 0.93150276 0.5927745 1.0315816 0.55428267 1.9630843 0.7159484 1.0546767
000010 e7 53 d6 27 25 e0 09 c1 fe 4f 16 e4 f6 f4 18 f4
       0.79293215 1.6243562 0.66205984 1.2856278 1.2702311 0.73904353 1.0546767 0.50039405 0.96999466 1.5935626 1.1547555 0.769837 0.9084077 0.8930109 1.1701523 0.8930109
000020 c0 2f 00 00 ef e6 03 32 2d 04 f8 d2 07 e6 e0 0c
       0.4926957 1.3472148 0.9853914 0.9853914 0.85451907 0.78523374 1.0084865 1.3703098 1.331818 1.0161848 0.9238044 0.63126636 1.0392799 0.78523374 0.73904353 1.0777718
000030 10 0f 17 e6 56 e0 0a fe e1 df 49 ec db 09 32 08
       1.1085653 1.1008669 1.1624539 0.78523374 1.6474512 0.73904353 1.0623751 0.96999466 0.7467419 0.7313452 1.5473723 0.831424 0.7005517 1.0546767 1.3703098 1.0469784

sequential_3/batch_normalization_17/FusedBatchNormV31 i1 [64] scale=0.002769485 zero_point=127
000000 b7 b4 9f 94 8f a5 9e bd d2 bc a8 bf b2 a5 c5 c2
       -0.553897 -0.5622055 -0.62036467 -0.650829 -0.6646764 -0.6037477 -0.62313414 -0.5372801 -0.4791209 -0.5400496 -0.5954393 -0.53174114 -0.56774443 -0.6037477 -0.5151242 -0.5234327
000010 c1 80 bd bf a8 b0 8f 99 c6 97 8c 9b bb be ad b1
       -0.5262022 -0.7062187 -0.5372801 -0.53174114 -0.5954393 -0.57328343 -0.6646764 -0.6369816 -0.51235473 -0.64252055 -0.6729849 -0.6314426 -0.5428191 -0.5345106 -0.58159184 -0.57051396
000020 c2 b3 a8 bc a6 a7 c3 92 b0 ad 86 aa 89 d7 aa db
       -0.5234327 -0.56497496 -0.5954393 -0.5400496 -0.60097826 -0.5982088 -0.5206632 -0.65636796 -0.57328343 -0.58159184 -0.6896018 -0.5899003 -0.68129337 -0.4652735 -0.5899003 -0.45419556
000030 b4 bd 94 c5 ad 87 b3 d4 9e af b6 ba ad b3 a1 b3
       -0.5622055 -0.5372801 -0.650829 -0.5151242 -0.58159184 -0.6868323 -0.56497496 -0.47358197 -0.62313414 -0.5760529 -0.5566665 -0.54558855 -0.58159184 -0.56497496 -0.6148257 -0.56497496

sequential_3/conv2d_18/Conv2D i1 [64, 3, 3, 64]
000000 b2 c2 1a 13 f5 bf 1e 3b 5e 37 20 87 ed 0b bd 5e
       -78 -62 26 19 -11 -65 30 59 94 55 32 -121 -19 11 -67 94
000010 f7 7f c9 02 b1 20 bd 90 89 ea 63 24 4c d3 21 45
       -9 127 -55 2 -79 32 -67 -112 -119 -22 99 36 76 -45 33 69
000020 c0 64 5c ca e9 9c 08 30 00 04 91 f6 95 9d c6 29
       -64 100 92 -54 -23 -100 8 48 0 4 -111 -10 -107 -99 -58 41
000030 07 4c d8 49 ff 1c d5 62 e3 89 de 65 47 87 c5 23
       7 76 -40 73 -1 28 -43 98 -29 -119 -34 101 71 -121 -59 35
000040 f1 e4 93 97 e2 49 28 6b 97 d2 b8 d4 67 a6 f0 5e
       -15 -28 -109 -105 -30 73 40 107 -105 -46 -72 -44 103 -90 -16 94
000050 2f 14 18 b3 dc fc 9a fb f1 1c c6 9d bc 4e 5b 0a
       47 20 24 -77 -36 -4 -102 -5 -15 28 -58 -99 -68 78 91 10
000060 a3 40 0a 47 0e ad 02 ff d2 69 cd 18 9a bf 0c fa
       -93 64 10 71 14 -83 2 -1 -46 105 -51 24 -102 -65 12 -6
000070 e1 93 8e 62 20 54 b9 fa 9d 08 45 f4 11 a1 cb 1c
       -31 -109 -114 98 32 84 -71 -6 -99 8 69 -12 17 -95 -53 28
000080 cb 3e 97 96 61 65 38 35 91 9e cd 0b 64 2e 2e 48
       -53 62 -105 -106 97 101 56 53 -111 -98 -51 11 100 46 46 72
000090 b7 42 d0 aa f6 0d 44 b6 af 23 5d e5 c9 78 96 25
       -73 66 -48 -86 -10 13 68 -74 -81 35 93 -27 -55 120 -106 37
0000a0 69 70 37 ea af f9 dc 6d 11 4e 1c 0a e0 5c ca de
       105 112 55 -22 -81 -7 -36 109 17 78 28 10 -32 92 -54 -34
0000b0 13 57 c7 28 5c e2 4f b0 12 b1 31 6c 65 e3 2b 23
       19 87 -57 40 92 -30 79 -80 18 -79 49 108 101 -29 43 35
0000c0 0d 7a eb 42 4e 50 0a af a1 68 8f 47 ff d8 4a 3d
       13 122 -21 66 78 80 10 -81 -95 104 -113 71 -1 -40 74 61
0000d0 d6 0e 71 60 17 1f 68 e0 07 dd fd 68 00 ae ae a9
       -42 14 113 96 23 31 104 -32 7 -35 -3 104 0 -82 -82 -87
0000e0 05 39 d6 3f e4 a7 3e fe 07 5e 4f f7 b8 26 8e 64
       5 57 -42 63 -28 -89 62 -2 7 94 79 -9 -72 38 -114 100
0000f0 f0 4b cc da 2b fb 41 a2 91 9d e2 06 dd 65 86 64
       -16 75 -52 -38 43 -5 65 -94 -111 -99 -30 6 -35 101 -122 100

sequential_3/batch_normalization_18/FusedBatchNormV3 i1 [64] scale=0.0047101644 zero_point=-128
000000 f1 f4 eb 67 e7 e5 00 15 1a 79 0c 7d 31 43 04 3f
       0.53224856 0.5463791 0.5039876 1.088048 0.48514694 0.4757266 0.60290104 0.7018145 0.72536534 1.1728309 0.659423 1.1916716 0.8336991 0.91848207 0.6217417 0.8996414
000010 cb 25 25 34 31 7f f0 44 fd 32 f6 f2 54 15 24 02
       0.35326234 0.7771771 0.7771771 0.8478296 0.8336991 1.2010919 0.5275384 0.9231922 0.58877057 0.83840925 0.5557994 0.53695875 0.9985548 0.7018145 0.77246696 0.6123214
000020 6c 69 16 5a 3b f3 40 29 7b 1a 09 42 08 77 5b 29
       1.1115988 1.0974683 0.70652467 1.0268159 0.8808007 0.5416689 0.9043516 0.79601777 1.1822512 0.72536534 0.6452925 0.91377187 0.6405824 1.1634105 1.031526 0.79601777
000030 43 0a fe 50 da 07 29 23 25 10 1d fe 00 12 40 2f
       0.91848207 0.65000266 0.5934807 0.9797142 0.4239148 0.6358722 0.79601777 0.7677568 0.7771771 0.67826366 0.7394958 0.5934807 0.60290104 0.687684 0.9043516 0.8242788

sequential_3/batch_normalization_18/FusedBatchNormV31 i1 [64] scale=0.0034859797 zero_point=127
000000 cd c0 bc bb c1 c6 f0 de e2 f0 80 fc c1 eb e2 f3
       -0.6205044 -0.66582215 -0.67976606 -0.68325204 -0.6623362 -0.6449063 -0.4984951 -0.56124276 -0.54729885 -0.4984951 -0.88892484 -0.45666334 -0.6623362 -0.515925 -0.54729885 -0.48803717
000010 bb d7 b5 c5 f9 dd ce d4 c0 c1 bf de cc bf ee a6
       -0.68325204 -0.5856446 -0.7041679 -0.64839226 -0.46712127 -0.56472874 -0.6170184 -0.59610254 -0.66582215 -0.6623362 -0.6693081 -0.56124276 -0.62399036 -0.6693081 -0.50546706 -0.7564576
000020 ec bc dd e9 dc b6 a4 b2 d8 cd e6 c6 ca fd bd ac
       -0.512439 -0.67976606 -0.56472874 -0.52289695 -0.5682147 -0.7006819 -0.7634296 -0.71462584 -0.5821586 -0.6205044 -0.5333549 -0.6449063 -0.6309623 -0.45317736 -0.6762801 -0.7355417
000030 d4 ec ba d3 9d b1 e3 b3 e4 d2 9c c6 b7 9c bc c0
       -0.59610254 -0.512439 -0.686738 -0.5995885 -0.7878314 -0.7181118 -0.5438128 -0.71113986 -0.54032683 -0.6030745 -0.7913174 -0.6449063 -0.69719595 -0.7913174 -0.67976606 -0.66582215

sequential_3/conv2d_19/Conv2D i1 [32, 3, 3, 64]
000000 e5 bd 14 e0 42 1b 9c 95 2d ce d4 05 30 b4 bc cf
       -27 -67 20 -32 66 27 -100 -107 45 -50 -44 5 48 -76 -68 -49
000010 46 af 32 dc 46 62 b6 1c cb 6f 55 f1 2e 32 d6 e7
       70 -81 50 -36 70 98 -74 28 -53 111 85 -15 46 50 -42 -25
000020 cc 02 4c f4 3e 6e 1b 53 6d 3f ae 52 14 3d 5e e3
       -52 2 76 -12 62 110 27 83 109 63 -82 82 20 61 94 -29
000030 c9 57 42 e6 5e ee d9 39 f8 47 c0 ba c5 15 e5 c2
       -55 87 66 -26 94 -18 -39 57 -8 71 -64 -70 -59 21 -27 -62
000040 24 22 45 f4 cc 2c 18 46 34 67 ce f0 65 0e c3 f8
       36 34 69 -12 -52 44 24 70 52 103 -50 -16 101 14 -61 -8
000050 a2 cc a2 af 5f ba e8 30 c7 fa 08 e8 ed a6 ed f4
       -94 -52 -94 -81 95 -70 -24 48 -57 -6 8 -24 -19 -90 -19 -12
000060 3f 3c e1 0c 1a bb 51 cb 02 c5 e3 a6 cc 0b 1e 19
       63 60 -31 12 26 -69 81 -53 2 -59 -29 -90 -52 11 30 25
000070 c0 02 e5 56 01 41 2b 35 de 70 ad e2 b6 b4 f3 0e
       -64 2 -27 86 1 65 43 53 -34 112 -83 -30 -74 -76 -13 14
000080 15 04 23 b3 3a fa f3 17 03 d1 c5 b9 43 41 0d 4c
       21 4 35 -77 58 -6 -13 23 3 -47 -59 -71 67 65 13 76
000090 d5 15 d3 d5 0b 11 a1 40 c5 0f 0a 08 51 3d 3c bd
       -43 21 -45 -43 11 17 -95 64 -59 15 10 8 81 61 60 -67
0000a0 09 f4 29 b6 2b c7 d9 ec 35 fe 49 2e 44 27 3b f6
       9 -12 41 -74 43 -57 -39 -20 53 -2 73 46 68 39 59 -10
0000b0 9d f4 17 a0 c9 cb 2d f1 39 61 1e 06 de 07 ff 15
       -99 -12 23 -96 -55 -53 45 -15 57 97 30 6 -34 7 -1 21
0000c0 12 d8 cf 33 a6 a8 33 b6 a1 ba 24 d4 d5 f4 18 61
       18 -40 -49 51 -90 -88 51 -74 -95 -70 36 -44 -43 -12 24 97
0000d0 e5 a8 f8 56 cb 30 2f c1 04 02 a1 03 2a dd 03 26
       -27 -88 -8 86 -53 48 47 -63 4 2 -95 3 42 -35 3 38
0000e0 65 38 16 6c 1f 0b 3c 4e 04 10 05 36 0f 24 b5 42
       101 56 22 108 31 11 60 78 4 16 5 54 15 36 -75 66
0000f0 0d bc 44 f0 34 c0 00 4c 20 7f 0a 32 ad 99 f6 ad
       13 -68 68 -16 52 -64 0 76 32 127 10 50 -83 -103 -10 -83

sequential_3/batch_normalization_19/FusedBatchNormV3 i1 [32] scale=0.004823153 zero_point=-128
000000 1e 12 04 38 f1 f4 fc f5 10 f3 e8 dc f2 3f 15 e6
       0.76205814 0.7041803 0.63665617 0.8874601 0.5450163 0.55948573 0.598071 0.5643089 0.694534 0.5546626 0.5016079 0.44373006 0.54983944 0.9212222 0.7186498 0.4919616
000010 f9 ee e5 d3 1b fb 39 0f fb fe f2 7f 0b e4 f1 e6
       0.5836015 0.53054684 0.48713845 0.4003217 0.7475887 0.59324783 0.89228326 0.68971086 0.59324783 0.6077173 0.54983944 1.2299039 0.67041826 0.4823153 0.5450163 0.4919616

sequential_3/batch_normalization_19/FusedBatchNormV31 i1 [32] scale=0.004059387 zero_point=127
000000 ef de f9 15 92 a8 ea a8 e1 ef e0 c1 b1 f8 c1 b4
       -0.5845517 -0.6535613 -0.5439578 -0.43029502 -0.9620747 -0.87276816 -0.6048486 -0.87276816 -0.6413831 -0.5845517 -0.64544255 -0.7712835 -0.8362337 -0.5480172 -0.7712835 -0.82405555
000010 b3 80 9b ee 08 ac 04 e7 ab 81 e0 24 d9 b3 ed ee
       -0.8281149 -1.0351436 -0.9255402 -0.5886111 -0.48306704 -0.85653067 -0.4993046 -0.6170268 -0.86059004 -1.0310843 -0.64544255 -0.3694042 -0.6738582 -0.8281149 -0.5926705 -0.5886111

sequential_3/dense_9/MatMul i1 [256, 1568] scale=0.0008536437 zero_point=0
000000 0c 01 00 19 fc da b7 22 11 13 d4 2f ed 17 f7 df
       0.010243724 0.0008536437 0.0 0.021341093 -0.0034145748 -0.03243846 -0.06231599 0.029023886 0.014511943 0.01621923 -0.03756032 0.040121254 -0.01621923 0.019633805 -0.0076827933 -0.028170241
000010 cd de fd 1f 20 14 0f b6 e9 ef 01 eb 17 2c be b9
       -0.04353583 -0.029023886 -0.002560931 0.026462955 0.027316598 0.017072873 0.012804655 -0.063169636 -0.019633805 -0.014511943 0.0008536437 -0.017926518 0.019633805 0.03756032 -0.056340482 -0.060608704
000020 e1 ed f6 fa 1e c1 25 2c 07 1b 20 49 37 e6 09 ef
       -0.026462955 -0.01621923 -0.008536437 -0.005121862 0.02560931 -0.053779554 0.031584818 0.03756032 0.005975506 0.02304838 0.027316598 0.06231599 0.046950404 -0.022194736 0.0076827933 -0.014511943
000030 2b 05 05 ef 26 f5 0d 2c 0d e8 35 f1 c8 34 ec 23
       0.03670668 0.0042682183 0.0042682183 -0.014511943 0.03243846 -0.00939008 0.011097368 0.03756032 0.011097368 -0.020487448 0.045243114 -0.012804655 -0.047804046 0.04438947 -0.017072873 0.029877529
000040 c7 e1 fa 12 d0 db ff 38 25 4c 3a 2a ca 36 17 10
       -0.04865769 -0.026462955 -0.005121862 0.015365587 -0.040974896 -0.031584818 -0.0008536437 0.047804046 0.031584818 0.06487692 0.049511336 0.035853036 -0.04609676 0.04609676 0.019633805 0.013658299
000050 de 39 0c ee 11 d2 38 f0 ef b4 27 d7 b8 eb e5 ed
       -0.029023886 0.04865769 0.010243724 -0.015365587 0.014511943 -0.03926761 0.047804046 -0.013658299 -0.014511943 -0.06487692 0.033292104 -0.034999393 -0.061462346 -0.017926518 -0.02304838 -0.01621923
000060 0d b8 42 43 0e d7 ed 20 13 ea 24 05 20 4b f7 38
       0.011097368 -0.061462346 0.056340482 0.05719413 0.011951012 -0.034999393 -0.01621923 0.027316598 0.01621923 -0.01878016 0.030731173 0.0042682183 0.027316598 0.06402328 -0.0076827933 0.047804046
000070 0f f8 fe 29 13 c5 da d7 da ce 36 db eb fe b9 06
       0.012804655 -0.0068291496 -0.0017072874 0.034999393 0.01621923 -0.05036498 -0.03243846 -0.034999393 -0.03243846 -0.042682186 0.04609676 -0.031584818 -0.017926518 -0.0017072874 -0.060608704 0.005121862
000080 e5 c7 27 41 38 29 db 06 06 25 06 13 1e 2a d2 bb
       -0.02304838 -0.04865769 0.033292104 0.05548684 0.047804046 0.034999393 -0.031584818 0.005121862 0.005121862 0.031584818 0.005121862 0.01621923 0.02560931 0.035853036 -0.03926761 -0.058901414
000090 1a db 31 c3 2d 33 02 2d ce ef 13 ff d4 0a 12 d5
       0.022194736 -0.031584818 0.04182854 -0.052072264 0.038413968 0.04353583 0.0017072874 0.038413968 -0.042682186 -0.014511943 0.01621923 -0.0008536437 -0.03756032 0.008536437 0.015365587 -0.03670668
0000a0 dd c6 14 32 f9 e0 2e c9 b0 15 f0 fa 1f 34 29 da
       -0.029877529 -0.049511336 0.017072873 0.042682186 -0.005975506 -0.027316598 0.03926761 -0.046950404 -0.06829149 0.017926518 -0.013658299 -0.005121862 0.026462955 0.04438947 0.034999393 -0.03243846
0000b0 b3 26 38 c0 be 38 32 1b 42 26 dc 1e e8 c9 1e fc
       -0.065730564 0.03243846 0.047804046 -0.054633196 -0.056340482 0.047804046 0.042682186 0.02304838 0.056340482 0.03243846 -0.030731173 0.02560931 -0.020487448 -0.046950404 0.02560931 -0.0034145748
0000c0 c6 30 dd df 32 35 f7 ee f7 22 d1 f3 de 45 f6 1c
       -0.049511336 0.040974896 -0.029877529 -0.028170241 0.042682186 0.045243114 -0.0076827933 -0.015365587 -0.0076827933 0.029023886 -0.040121254 -0.011097368 -0.029023886 0.058901414 -0.008536437 0.023902023
0000d0 24 fc ca 0d b0 3c ff 0b 2e da 23 0c 26 43 cd f5
       0.030731173 -0.0034145748 -0.04609676 0.011097368 -0.06829149 0.05121862 -0.0008536437 0.00939008 0.03926761 -0.03243846 0.029877529 0.010243724 0.03243846 0.05719413 -0.04353583 -0.00939008
0000e0 12 e2 ea 3c 01 fa e8 d3 20 02 37 cf 05 fc 12 30
       0.015365587 -0.02560931 -0.01878016 0.05121862 0.0008536437 -0.005121862 -0.020487448 -0.038413968 0.027316598 0.0017072874 0.046950404 -0.04182854 0.0042682183 -0.0034145748 0.015365587 0.040974896
0000f0 e4 22 cf cf 11 1d 16 37 21 ff e5 12 c0 1d c2 2e
       -0.023902023 0.029023886 -0.04182854 -0.04182854 0.014511943 0.024755668 0.01878016 0.046950404 0.028170241 -0.0008536437 -0.02304838 0.015365587 -0.054633196 0.024755668 -0.05292591 0.03926761

sequential_3/dense_10/MatMul i1 [64, 256] scale=0.0014581362 zero_point=0
000000 1a c9 23 d1 aa 31 da 4f b9 41 a7 ec 03 b3 bf d2
       0.03791154 -0.08019749 0.051034767 -0.06853241 -0.12539972 0.07144868 -0.05540918 0.11519276 -0.10352767 0.09477886 -0.12977412 -0.029162725 0.0043744086 -0.112276495 -0.09477886 -0.06707427
000010 0e d6 e1 0e 15 ac 48 ec de c6 b3 3e 39 20 e6 d8
       0.020413907 -0.061241724 -0.045202225 0.020413907 0.030620862 -0.12248345 0.10498581 -0.029162725 -0.049576633 -0.084571905 -0.112276495 0.09040445 0.08311377 0.04666036 -0.03791154 -0.05832545
000020 b1 20 04 1c da 44 53 46 04 e3 4e 3f c2 45 b4 c6
       -0.11519276 0.04666036 0.005832545 0.040827814 -0.05540918 0.099153265 0.12102531 0.102069534 0.005832545 -0.042285953 0.113734625 0.09186258 -0.09040445 0.1006114 -0.11081836 -0.084571905
000030 0c f0 1b 38 da 9e 33 13 f6 af 4a e0 e2 3b 1b e8
       0.017497635 -0.02333018 0.03936968 0.08165563 -0.05540918 -0.14289735 0.074364945 0.02770459 -0.014581363 -0.11810903 0.10790208 -0.04666036 -0.043744087 0.086030036 0.03936968 -0.03499527
000040 36 c8 df fb f7 b8 c0 cb f8 ed cd 0a fd 3d 1b c9
       0.07873936 -0.08165563 -0.048118494 -0.0072906814 -0.013123226 -0.10498581 -0.09332072 -0.07728122 -0.01166509 -0.02770459 -0.074364945 0.014581363 -0.0043744086 0.08894631 0.03936968 -0.08019749
000050 23 37 9f cd a9 40 e5 0f a8 47 eb ef b7 48 1d 14
       0.051034767 0.08019749 -0.14143921 -0.074364945 -0.12685785 0.09332072 -0.03936968 0.021872044 -0.12831599 0.10352767 -0.030620862 -0.024788316 -0.10644395 0.10498581 0.042285953 0.029162725
000060 0e d8 07 a5 a8 26 bf ae cd f3 21 e4 c9 46 e9 b3
       0.020413907 -0.05832545 0.010206954 -0.1326904 -0.12831599 0.05540918 -0.09477886 -0.11956717 -0.074364945 -0.01895577 0.048118494 -0.040827814 -0.08019749 0.102069534 -0.033537135 -0.112276495
000070 ba 10 b6 d2 2c c8 c2 c0 bb e5 dd fb e2 ae ed 09
       -0.102069534 0.02333018 -0.10790208 -0.06707427 0.06415799 -0.08165563 -0.09040445 -0.09332072 -0.1006114 -0.03936968 -0.051034767 -0.0072906814 -0.043744087 -0.11956717 -0.02770459 0.013123226
000080 d4 1b 1d 4a ce fb 3f f9 46 ad 4d ec 36 aa 2d 0c
       -0.06415799 0.03936968 0.042285953 0.10790208 -0.072906815 -0.0072906814 0.09186258 -0.010206954 0.102069534 -0.12102531 0.112276495 -0.029162725 0.07873936 -0.12539972 0.06561613 0.017497635
000090 e6 c9 09 28 a1 24 06 0a 05 e3 08 40 f0 48 ba b7
       -0.03791154 -0.08019749 0.013123226 0.05832545 -0.13852294 0.052492905 0.008748817 0.014581363 0.0072906814 -0.042285953 0.01166509 0.09332072 -0.02333018 0.10498581 -0.102069534 -0.10644395
0000a0 9d ba 3a fa f1 d5 d5 ff 9a 3e 43 ee 34 48 35 12
       -0.14435549 -0.102069534 0.084571905 -0.008748817 -0.021872044 -0.06269986 -0.06269986 -0.0014581362 -0.14872989 0.09040445 0.09769513 -0.026246453 0.07582308 0.10498581 0.07728122 0.026246453
0000b0 bb 3d cc a5 b9 c1 1f f8 e5 4f 29 4e 4a 2c bf 0a
       -0.1006114 0.08894631 -0.07582308 -0.1326904 -0.10352767 -0.09186258 0.045202225 -0.01166509 -0.03936968 0.11519276 0.059783585 0.113734625 0.10790208 0.06415799 -0.09477886 0.014581363
0000c0 0f 04 06 d7 d9 4d d4 b4 4c 41 e9 fc 16 bd c6 05
       0.021872044 0.005832545 0.008748817 -0.059783585 -0.056867313 0.112276495 -0.06415799 -0.11081836 0.11081836 0.09477886 -0.033537135 -0.005832545 0.032078996 -0.09769513 -0.084571905 0.0072906814
0000d0 fc 01 45 af 27 c6 14 02 16 c4 cb bb c0 f1 d6 49
       -0.005832545 0.0014581362 0.1006114 -0.11810903 0.056867313 -0.084571905 0.029162725 0.0029162725 0.032078996 -0.087488174 -0.07728122 -0.1006114 -0.09332072 -0.021872044 -0.061241724 0.10644395
0000e0 b2 3e 10 f4 39 b4 cc 3d 52 3b f5 9f 37 07 07 ae
       -0.113734625 0.09040445 0.02333018 -0.017497635 0.08311377 -0.11081836 -0.07582308 0.08894631 0.11956717 0.086030036 -0.016039498 -0.14143921 0.08019749 0.010206954 0.010206954 -0.11956717
0000f0 d8 0c b3 fc b5 fa d0 d2 ab f2 ce f8 32 d6 27 3f
       -0.05832545 0.017497635 -0.112276495 -0.005832545 -0.10936022 -0.008748817 -0.06999054 -0.06707427 -0.12394158 -0.020413907 -0.072906815 -0.01166509 0.072906815 -0.061241724 0.056867313 0.09186258

sequential_3/dense_11/MatMul i1 [5, 64] scale=0.00225974 zero_point=0
000000 a6 41 8d 54 ba 7b d5 2d 7a 4b c8 58 59 1e 9a 49
       -0.20337659 0.1468831 -0.25987008 0.18981816 -0.15818179 0.27794802 -0.09716882 0.101688296 0.27568826 0.16948049 -0.12654543 0.19885711 0.20111685 0.0677922 -0.23049347 0.16496101
000010 60 4a 2a a6 88 1d ce 89 79 ef 55 89 da ce 1f d3
       0.21693504 0.16722076 0.09490908 -0.20337659 -0.2711688 0.06553246 -0.112987 -0.26890904 0.27342853 -0.038415577 0.19207789 -0.26890904 -0.08587012 -0.112987 0.07005194 -0.101688296
000020 5a 62 21 b0 41 9b 4b 52 2d 4b 1b 56 e6 0d ea e4
       0.20337659 0.22145452 0.074571416 -0.18077919 0.1468831 -0.22823372 0.16948049 0.18529867 0.101688296 0.16948049 0.061012976 0.19433764 -0.058753237 0.029376619 -0.04971428 -0.063272715
000030 75 e0 c5 d4 23 68 c6 be 16 96 67 b1 ec cc 83 e6
       0.26438957 -0.07231168 -0.13332465 -0.09942856 0.07909089 0.23501295 -0.13106492 -0.14914283 0.04971428 -0.23953243 0.23275322 -0.17851946 -0.045194797 -0.117506474 -0.28246748 -0.058753237
000040 39 68 19 73 28 43 8a 53 ec 85 94 dd 08 cc cb a9
       0.12880518 0.23501295 0.0564935 0.25987008 0.090389594 0.15140258 -0.2666493 0.18755841 -0.045194797 -0.27794802 -0.2440519 -0.07909089 0.01807792 -0.117506474 -0.11976621 -0.19659737
000050 3b 73 94 40 ee 8b 6c 42 fd 95 8e 89 6e 90 f4 02
       0.13332465 0.25987008 -0.2440519 0.14462335 -0.04067532 -0.26438957 0.2440519 0.14914283 -0.00677922 -0.24179217 -0.25761035 -0.26890904 0.2485714 -0.25309086 -0.02711688 0.00451948
000060 a3 ec 7a ad 5f c0 1c d6 22 cb b6 1d f7 3c a0 8e
       -0.21015581 -0.045194797 0.27568826 -0.18755841 0.21467529 -0.14462335 0.063272715 -0.09490908 0.076831155 -0.11976621 -0.16722076 0.06553246 -0.02033766 0.1355844 -0.21693504 -0.25761035
000070 a7 ed a9 6a f2 56 aa e1 37 6e 2d 4a 58 96 eb 75
       -0.20111685 -0.04293506 -0.19659737 0.23953243 -0.031636357 0.19433764 -0.19433764 -0.07005194 0.1242857 0.2485714 0.101688296 0.16722076 0.19885711 -0.23953243 -0.04745454 0.26438957
000080 23 3b f1 68 f2 ca bb a7 69 f0 c6 f8 6b 33 1e 38
       0.07909089 0.13332465 -0.0338961 0.23501295 -0.031636357 -0.12202595 -0.15592206 -0.20111685 0.2372727 -0.03615584 -0.13106492 -0.01807792 0.24179217 0.115246736 0.0677922 0.12654543
000090 c7 51 69 97 15 dc 1e cb 8d 25 13 f2 63 19 a2 6a
       -0.12880518 0.18303894 0.2372727 -0.2372727 0.04745454 -0.08135064 0.0677922 -0.11976621 -0.25987008 0.08361038 0.04293506 -0.031636357 0.22371425 0.0564935 -0.21241555 0.23953243
0000a0 6b ed 3d 4b 4d 26 2d f6 21 4a e7 4b 9a 7c ed 35
       0.24179217 -0.04293506 0.13784413 0.16948049 0.17399998 0.08587012 0.101688296 -0.022597399 0.074571416 0.16722076 -0.0564935 0.16948049 -0.23049347 0.28020775 -0.04293506 0.11976621
0000b0 ff dc 1e 5a 57 41 d1 73 df 61 06 b9 5a d3 e5 6b
       -0.00225974 -0.08135064 0.0677922 0.20337659 0.19659737 0.1468831 -0.10620777 0.25987008 -0.074571416 0.21919477 0.01355844 -0.16044153 0.20337659 -0.101688296 -0.061012976 0.24179217
0000c0 64 e6 4c e9 26 97 1e d0 40 91 45 13 e0 cd 03 6d
       0.225974 -0.058753237 0.17174023 -0.051974017 0.08587012 -0.2372727 0.0677922 -0.10846752 0.14462335 -0.25083113 0.15592206 0.04293506 -0.07231168 -0.115246736 0.00677922 0.24631165
0000d0 9a e5 c0 59 c5 8b b8 0d 26 5e 2f 07 4c 48 f1 3d
       -0.23049347 -0.061012976 -0.14462335 0.20111685 -0.13332465 -0.26438957 -0.16270128 0.029376619 0.08587012 0.21241555 0.10620777 0.015818179 0.17174023 0.16270128 -0.0338961 0.13784413
0000e0 3b 9a b2 eb 0d 8f b1 d4 4c d7 45 2b 8c 15 0a a9
       0.13332465 -0.23049347 -0.17625971 -0.04745454 0.029376619 -0.25535062 -0.17851946 -0.09942856 0.17174023 -0.09264933 0.15592206 0.09716882 -0.26212984 0.04745454 0.022597399 -0.19659737
0000f0 6f 47 f0 ad 34 c8 d5 d1 ef 61 dd d2 d0 a7 dd 59
       0.25083113 0.16044153 -0.03615584 -0.18755841 0.117506474 -0.12654543 -0.09716882 -0.10620777 -0.038415577 0.21919477 -0.07909089 -0.103948034 -0.10846752 -0.20111685 -0.07909089 0.20111685
