Python/quantized_models/test.tflite (tflite, 58936 bytes, 18 tensors)

sequential_1/conv2d_5/Conv2D i1 [16, 3, 3, 3]
00000000: 6ba0 c1a2 f128 10dd 2d84 2bf9 92e2 1177
00000010: 62cc 874c 4281 9f47 4bed 341a 161e bd71
00000020: 51ce 7d48 bbd2 1341 9c86 d6c4 1b26 bd71
00000030: ad68 81f8 171a 6030 cb7f f14e 14fd f2e4
00000040: 5f25 a8e3 577c 042b 0e86 5f96 2510 8caa
00000050: f35e 2479 ed9f cfe7 be11 4cb8 8699 1d8e
00000060: a981 d90f c5cf 2b48 3986 e6a8 0632 066c
00000070: 1081 4bf4 d83c e129 c4cb 7209 08ae ea45
00000080: 2a8c 77c3 9963 938b 2f59 88d8 68ff 2056
00000090: ae60 8f88 609a 5751 b50a b0ae 12e9 f981
000000a0: 90fc 9f81 9516 9761 57dc eadd 9baa ebd6
000000b0: 9291 f7f0 d7d3 ce8f c8b8 fb1a 997a 469e
000000c0: fa0b cc09 5bb7 05eb 688c eec2 bc82 8647
000000d0: 637f 481d 53b0 c670 2070 c169 4d0d a8fd
000000e0: d283 c78b e0e1 af68 7f50 31ba 513a 7206
000000f0: 411f 6df8 0963 3693 e82c 0bc2 9351 734b
107 -96 -63 -94 -15 40 16 -35
45 -124 43 -7 -110 -30 17 119
98 -52 -121 76 66 -127 -97 71
75 -19 52 26 22 30 -67 113
81 -50 125 72 -69 -46 19 65
-100 -122 -42 -60 27 38 -67 113
-83 104 -127 -8 23 26 96 48
-53 127 -15 78 20 -3 -14 -28
95 37 -88 -29 87 124 4 43
14 -122 95 -106 37 16 -116 -86
-13 94 36 121 -19 -97 -49 -25
-66 17 76 -72 -122 -103 29 -114
-87 -127 -39 15 -59 -49 43 72
57 -122 -26 -88 6 50 6 108
16 -127 75 -12 -40 60 -31 41
-60 -53 114 9 8 -82 -22 69
42 -116 119 -61 -103 99 -109 -117
47 89 -120 -40 104 -1 32 86
-82 96 -113 -120 96 -102 87 81
-75 10 -80 -82 18 -23 -7 -127
-112 -4 -97 -127 -107 22 -105 97
87 -36 -22 -35 -101 -86 -21 -42
-110 -111 -9 -16 -41 -45 -50 -113
-56 -72 -5 26 -103 122 70 -98
-6 11 -52 9 91 -73 5 -21
104 -116 -18 -62 -68 -126 -122 71
99 127 72 29 83 -80 -58 112
32 112 -63 105 77 13 -88 -3
-46 -125 -57 -117 -32 -31 -81 104
127 80 49 -70 81 58 114 6
65 31 109 -8 9 99 54 -109
-24 44 11 -62 -109 81 115 75

sequential_1/batch_normalization_5/FusedBatchNormV3 i1 [16] scale=0.12463533 zero_point=-128
00000000: 7c2a c07d 257c 7ed3 a423 a37f 78a9 de21
31.408104 21.188005 7.976661 31.53274 20.564829 31.408104 31.657373 10.344732
4.4868717 20.31556 4.3622365 31.78201 30.909563 5.110049 11.715721 20.066288

sequential_1/batch_normalization_5/FusedBatchNormV31 i1 [16] scale=0.014616417 zero_point=126
00000000: 7f25 b77e 327d 7e00 9af8 8d7d 7e80 e578
0.014616417 -1.3008611 -2.9086668 0.0 -1.1108477 -0.014616417 0.0 -1.8416685
-3.3325431 -1.9585998 -3.5225565 -0.014616417 0.0 -3.71257 -2.2363117 -0.087698504

sequential_1/conv2d_6/Conv2D i1 [16, 3, 3, 16]
00000000: 4e60 04dd 511e bb52 4f3d e4fe a2b6 86ee
00000010: f044 ebbe 7788 daa2 8dcd dadf 2603 d424
00000020: 13f2 9294 9be9 4359 cf3a c0d6 6aba 2b63
00000030: b194 9a38 30d5 31ed fffe a594 e157 28ac
00000040: cf02 739e 828e 6678 3d2c e7f1 b3d9 986f
00000050: dda6 2eb5 cba0 aa41 05cb e028 fb55 703c
00000060: e8d5 0d4d 1916 ea6b 1798 7147 6e37 0a0b
00000070: 5bd6 a21f ed1e 6013 7fc1 7790 c9d2 b978
00000080: f485 e1b2 91d9 274f 25d3 cd56 42d7 ecdb
00000090: 4ce2 c7c8 c455 7a08 75e5 a3da 8d19 1100
000000a0: 094b 950c 8a72 7be6 7a88 9492 1656 3b5c
000000b0: 1e00 b89e f0a6 2719 bf3f e547 dd79 f7f3
000000c0: d0a0 edad 2bd5 13cb 9657 235b f47e c924
000000d0: 4ebf 4e3b 002f 4c12 6ba6 3677 8711 dad1
000000e0: 0cbf 05f0 0360 1c95 da5d 3eaf 22fc e99c
000000f0: d0b9 3643 f0be 7e66 3233 7f1c ae9e dba7
78 96 4 -35 81 30 -69 82
79 61 -28 -2 -94 -74 -122 -18
-16 68 -21 -66 119 -120 -38 -94
-115 -51 -38 -33 38 3 -44 36
19 -14 -110 -108 -101 -23 67 89
-49 58 -64 -42 106 -70 43 99
-79 -108 -102 56 48 -43 49 -19
-1 -2 -91 -108 -31 87 40 -84
-49 2 115 -98 -126 -114 102 120
61 44 -25 -15 -77 -39 -104 111
-35 -90 46 -75 -53 -96 -86 65
5 -53 -32 40 -5 85 112 60
-24 -43 13 77 25 22 -22 107
23 -104 113 71 110 55 10 11
91 -42 -94 31 -19 30 96 19
127 -63 119 -112 -55 -46 -71 120
-12 -123 -31 -78 -111 -39 39 79
37 -45 -51 86 66 -41 -20 -37
76 -30 -57 -56 -60 85 122 8
117 -27 -93 -38 -115 25 17 0
9 75 -107 12 -118 114 123 -26
122 -120 -108 -110 22 86 59 92
30 0 -72 -98 -16 -90 39 25
-65 63 -27 71 -35 121 -9 -13
-48 -96 -19 -83 43 -43 19 -53
-106 87 35 91 -12 126 -55 36
78 -65 78 59 0 47 76 18
107 -90 54 119 -121 17 -38 -47
12 -65 5 -16 3 96 28 -107
-38 93 62 -81 34 -4 -23 -100
-48 -71 54 67 -16 -66 126 102
50 51 127 28 -82 -98 -37 -89

sequential_1/batch_normalization_6/FusedBatchNormV3 i1 [16] scale=0.013191483 zero_point=-128
00000000: fef6 de04 1a25 f5f9 2e24 7fcc 1711 f9ee
1.6621269 1.556595 1.2399994 1.7412758 2.0314884 2.1765947 1.5434035 1.5961695
2.2953181 2.1634033 3.3638282 1.0025527 1.9919139 1.912765 1.5961695 1.4510632

sequential_1/batch_normalization_6/FusedBatchNormV31 i1 [16] scale=0.0035729727 zero_point=127
00000000: 09bd cef4 b8ac e8db dbf4 f897 8780 0ec8
-0.42161077 -0.6931567 -0.6324162 -0.49664322 -0.71102154 -0.75389725 -0.5395189 -0.58596754
-0.58596754 -0.49664322 -0.4823513 -0.82892966 -0.88609725 -0.911108 -0.40374592 -0.653854

sequential_1/conv2d_7/Conv2D i1 [32, 3, 3, 16]
00000000: 2813 75b5 0bc5 4763 66ff e137 6940 de74
00000010: 67ed 0255 08ef 3004 76cd dffc 085d 969c
00000020: 5008 13ce 8f25 a214 4beb 66f0 fa3a 6147
00000030: 9305 c6b9 6a2b fa73 a5c7 60b1 b3a3 e8d0
00000040: d072 3a1d b9b3 91e6 ef19 1d59 c6dd 4eee
00000050: 4a42 d6e4 05df 526c 3eed 9bc6 5f0e aa6e
00000060: 21ab 2a29 3ddc b991 d351 5f14 b137 288f
00000070: 6756 2097 122e 1e46 0634 8cf2 2268 ed11
00000080: 81ca 35cd 0a03 d732 6f8f acda 2b6e 08ca
00000090: ef51 edad 2b8f d646 b128 0c8a 5cf6 e2dd
000000a0: e861 db06 aaf1 3ae1 357f dbb4 cacf 0165
000000b0: c47b bea5 dc6f b75d d8ee ee2a e7f2 0c41
000000c0: fb79 3a51 1534 6ccb bc0c b513 dcdb 395c
000000d0: d103 546f 5553 9f13 b0af c153 04a5 2daf
000000e0: eca7 9bea 92cf f0a7 e8f9 f1a6 ae42 09f8
000000f0: 04ca f192 84b5 0736 f42a b656 40ff 9ead
40 19 117 -75 11 -59 71 99
102 -1 -31 55 105 64 -34 116
103 -19 2 85 8 -17 48 4
118 -51 -33 -4 8 93 -106 -100
80 8 19 -50 -113 37 -94 20
75 -21 102 -16 -6 58 97 71
-109 5 -58 -71 106 43 -6 115
-91 -57 96 -79 -77 -93 -24 -48
-48 114 58 29 -71 -77 -111 -26
-17 25 29 89 -58 -35 78 -18
74 66 -42 -28 5 -33 82 108
62 -19 -101 -58 95 14 -86 110
33 -85 42 41 61 -36 -71 -111
-45 81 95 20 -79 55 40 -113
103 86 32 -105 18 46 30 70
6 52 -116 -14 34 104 -19 17
-127 -54 53 -51 10 3 -41 50
111 -113 -84 -38 43 110 8 -54
-17 81 -19 -83 43 -113 -42 70
-79 40 12 -118 92 -10 -30 -35
-24 97 -37 6 -86 -15 58 -31
53 127 -37 -76 -54 -49 1 101
-60 123 -66 -91 -36 111 -73 93
-40 -18 -18 42 -25 -14 12 65
-5 121 58 81 21 52 108 -53
-68 12 -75 19 -36 -37 57 92
-47 3 84 111 85 83 -97 19
-80 -81 -63 83 4 -91 45 -81
-20 -89 -101 -22 -110 -49 -16 -89
-24 -7 -15 -90 -82 66 9 -8
4 -54 -15 -110 -124 -75 7 54
-12 42 -74 86 64 -1 -98 -83

sequential_1/batch_normalization_7/FusedBatchNormV3 i1 [32] scale=0.009159083 zero_point=-128
00000000: 0041 fa03 f730 0b0c d328 deb8 0602 e225
00000010: 0a40 1708 2251 bc09 d67f dd16 ec1d 3926
1.1723626 1.7677029 1.117408 1.1998398 1.0899308 1.6119986 1.2731124 1.2822715
0.76020384 1.5387259 0.86095375 0.51290864 1.2273171 1.1906807 0.8975901 1.5112486
1.2639534 1.7585438 1.3830215 1.2456353 1.4837713 1.9142482 0.54954493 1.2547944
0.7876811 2.335566 0.85179466 1.3738624 0.9891809 1.437976 1.6944302 1.5204077

sequential_1/batch_normalization_7/FusedBatchNormV31 i1 [32] scale=0.0038291123 zero_point=127
00000000: b0f1 ede3 caed bdf4 80e8 06d2 2f04 d5cf
00000010: e6e2 c0d5 c2ef 8fc9 dee7 b1f5 d1ed dae5
-0.79262626 -0.54373395 -0.5590504 -0.59734154 -0.69306934 -0.5590504 -0.7428478 -0.5322466
-0.9764236 -0.5781959 -0.46332258 -0.6624364 -0.30632898 -0.47098082 -0.65094906 -0.67392373
-0.5858542 -0.6011706 -0.73136044 -0.65094906 -0.7237022 -0.5513922 -0.9189869 -0.69689846
-0.6164871 -0.58202505 -0.78879714 -0.52841747 -0.66626555 -0.5590504 -0.6318035 -0.5896833

sequential_1/conv2d_8/Conv2D i1 [32, 3, 3, 32]
00000000: 9b04 dc55 aaaa a5c9 1361 2c09 ebf8 acbd
00000010: 6e22 0bbf 9821 0a8e 27b8 c830 2806 64ec
00000020: 247c c135 0ca5 b9e2 a11d 5475 d8ee c46d
00000030: f83b e92d 6899 4a9a aeec 1201 2d01 f1ab
00000040: e5cd 19bd 24be b91d e61e cb2c a313 7b0b
00000050: 2507 7438 0e46 93cd b547 1e64 dd06 d00a
00000060: 1712 4495 baa6 45f8 17e2 3123 d3e4 24e5
00000070: 4e33 5116 2629 2203 162a 4853 df5c 772f
00000080: afba 1ba2 5db7 34e1 e007 ab12 6ac1 4960
00000090: e43d 4e3a 88f7 1e39 f0c3 1ce6 3092 f257
000000a0: 4209 f539 bc73 e309 2023 f1a7 a576 0d6c
000000b0: 3965 4643 1f22 3a33 5b22 b563 cbcd ab3c
000000c0: 74ab 5f9b d89a 2fd8 a022 bbe0 1250 45fc
000000d0: ff23 ad35 3cd9 ea4c 5e54 975f 13cb ec3b
000000e0: 1a6f 43c5 caf6 5eee 0f18 0f42 a2f7 5ede
000000f0: beac d919 e20d 4cb7 a9fb 6bad 1743 3f3e
-101 4 -36 85 -86 -86 -91 -55
19 97 44 9 -21 -8 -84 -67
110 34 11 -65 -104 33 10 -114
39 -72 -56 48 40 6 100 -20
36 124 -63 53 12 -91 -71 -30
-95 29 84 117 -40 -18 -60 109
-8 59 -23 45 104 -103 74 -102
-82 -20 18 1 45 1 -15 -85
-27 -51 25 -67 36 -66 -71 29
-26 30 -53 44 -93 19 123 11
37 7 116 56 14 70 -109 -51
-75 71 30 100 -35 6 -48 10
23 18 68 -107 -70 -90 69 -8
23 -30 49 35 -45 -28 36 -27
78 51 81 22 38 41 34 3
22 42 72 83 -33 92 119 47
-81 -70 27 -94 93 -73 52 -31
-32 7 -85 18 106 -63 73 96
-28 61 78 58 -120 -9 30 57
-16 -61 28 -26 48 -110 -14 87
66 9 -11 57 -68 115 -29 9
32 35 -15 -89 -91 118 13 108
57 101 70 67 31 34 58 51
91 34 -75 99 -53 -51 -85 60
116 -85 95 -101 -40 -102 47 -40
-96 34 -69 -32 18 80 69 -4
-1 35 -83 53 60 -39 -22 76
94 84 -105 95 19 -53 -20 59
26 111 67 -59 -54 -10 94 -18
15 24 15 66 -94 -9 94 -34
-66 -84 -39 25 -30 13 76 -73
-87 -5 107 -83 23 67 63 62

sequential_1/batch_normalization_8/FusedBatchNormV3 i1 [32] scale=0.009214646 zero_point=-128
00000000: b72e c3de f9c5 e0e1 e5c2 be00 2dd0 cdd6
00000010: b10e d1f2 7fd7 0a04 e6de 3ae1 25d3 e1f5
0.50680554 1.6033485 0.6173813 0.8661767 1.1149722 0.6358106 0.884606 0.8938207
0.93067926 0.60816664 0.5713081 1.1794747 1.5941337 0.7371717 0.70952773 0.79245955
0.45151767 1.3084798 0.74638635 1.0504696 2.3497348 0.80167425 1.2716212 1.2163333
0.9398939 0.8661767 1.7139242 0.8938207 1.5204166 0.7648156 0.8938207 1.0781136

sequential_1/batch_normalization_8/FusedBatchNormV31 i1 [32] scale=0.004883558 zero_point=127
00000000: c133 f2f7 0dbb b7e5 deee e915 16e3 d42e
00000010: e213 8003 33c8 00f1 f7f3 2905 20c1 ce29
-0.927876 -0.3711504 -0.6885817 -0.6641639 -0.5567256 -0.9571774 -0.97671163 -0.7520679
-0.78625286 -0.70811594 -0.7325337 -0.51765716 -0.5127736 -0.76183504 -0.83508843 -0.3955682
-0.7667186 -0.5274243 -1.2453073 -0.6055612 -0.3711504 -0.8936911 -0.62021184 -0.69346523
-0.6641639 -0.6836981 -0.41998598 -0.5957941 -0.463938 -0.927876 -0.8643898 -0.41998598

sequential_1/conv2d_9/Conv2D i1 [16, 3, 3, 32]
00000000: 93dd dbd5 fa67 23d4 bdb0 c0db 7017 93d6
00000010: 318e 370c b76d 6bf4 fee2 c871 bc05 afff
00000020: 6b77 598b 12a7 a74c a499 7c1f 1b20 916c
00000030: d3fd cdf1 0462 bb55 dfcb 57a5 cfc2 2dd7
00000040: 1550 a43b 5efd a128 65cf d9d3 63d4 aff7
00000050: 48de d0da 205f d11d d29d 449e c3d6 5c1c
00000060: c40e 5004 409a 1540 9397 3cfd 13be 05e3
00000070: 1734 4636 bf5a 0e21 41b4 32a9 3adb 327f
00000080: e83e 50e9 e106 979a a9d8 4b5c 05b9 ba71
00000090: 181e 6487 2bc9 c02d 01cc 3a20 345b 8cb9
000000a0: e06a e549 b7fd 1cc7 e36a 12bd ea02 cecc
000000b0: 2811 1ba8 df5b cad5 eb53 beec 52d2 6d09
000000c0: 9dc1 991f e2a2 4a01 f742 d65f c9e5 700c
000000d0: 9463 6905 50f1 61f3 ef70 98c4 c1d7 aa4e
000000e0: 38d1 f4d2 bbe4 fdf7 a45d 2b60 1cf8 3b60
000000f0: 60dd 5fdf 5837 2526 3841 449c 62c7 bd26
-109 -35 -37 -43 -6 103 35 -44
-67 -80 -64 -37 112 23 -109 -42
49 -114 55 12 -73 109 107 -12
-2 -30 -56 113 -68 5 -81 -1
107 119 89 -117 18 -89 -89 76
-92 -103 124 31 27 32 -111 108
-45 -3 -51 -15 4 98 -69 85
-33 -53 87 -91 -49 -62 45 -41
21 80 -92 59 94 -3 -95 40
101 -49 -39 -45 99 -44 -81 -9
72 -34 -48 -38 32 95 -47 29
-46 -99 68 -98 -61 -42 92 28
-60 14 80 4 64 -102 21 64
-109 -105 60 -3 19 -66 5 -29
23 52 70 54 -65 90 14 33
65 -76 50 -87 58 -37 50 127
-24 62 80 -23 -31 6 -105 -102
-87 -40 75 92 5 -71 -70 113
24 30 100 -121 43 -55 -64 45
1 -52 58 32 52 91 -116 -71
-32 106 -27 73 -73 -3 28 -57
-29 106 18 -67 -22 2 -50 -52
40 17 27 -88 -33 91 -54 -43
-21 83 -66 -20 82 -46 109 9
-99 -63 -103 31 -30 -94 74 1
-9 66 -42 95 -55 -27 112 12
-108 99 105 5 80 -15 97 -13
-17 112 -104 -60 -63 -41 -86 78
56 -47 -12 -46 -69 -28 -3 -9
-92 93 43 96 28 -8 59 96
96 -35 95 -33 88 55 37 38
56 65 68 -100 98 -57 -67 38

sequential_1/batch_normalization_9/FusedBatchNormV3 i1 [16] scale=0.00771678 zero_point=-128
00000000: dccc ebd9 00bc c2d7 dbcf c2ca c07f dcd9
0.7099438 0.5864753 0.82569546 0.68679345 0.98774785 0.4630068 0.5093075 0.67135984
0.702227 0.60962564 0.5093075 0.5710417 0.49387392 1.9677789 0.7099438 0.68679345

sequential_1/batch_normalization_9/FusedBatchNormV31 i1 [16] scale=0.003986857 zero_point=127
00000000: b6cd dba1 f595 cca3 c180 b692 bf27 c9dc
-0.8013582 -0.70966053 -0.65384454 -0.88508224 -0.5501863 -0.9329245 -0.71364737 -0.8771085
-0.7575028 -1.0166485 -0.8013582 -0.9448851 -0.7654765 -0.3508434 -0.72560793 -0.6498577

sequential_1/dense_3/MatMul i1 [128, 144] scale=0.0015698982 zero_point=0
00000000: b817 1ed5 a9dd 0457 ae10 270d e3eb b3c6
00000010: 3b3a d3b0 08cd df33 b229 692a e229 25bc
00000020: ecd4 bedf f062 aee0 a2b1 e7c1 affd 0ace
00000030: 5412 b6d2 abf4 565b 5155 5c02 2118 15fd
00000040: 4511 16f0 bc64 5836 1637 1449 1961 4541
00000050: b42b e3fa ffde c0b9 0d29 b802 19e3 fe02
00000060: 08e9 32c8 adf6 cf2a 0438 48a7 dca4 43c4
00000070: 0adc 1ab1 114b 110a 0cd6 50f6 20a9 57bb
00000080: bcb9 a8cf 0336 390c d7ad 0122 334d 1ae0
00000090: c6bf 45b0 a1b6 4b04 0e15 3df0 e3ca d810
000000a0: 4a46 aa28 d7da 0ecf f4df eda2 f7d2 09b9
000000b0: 13ff f7d0 b0f4 032f 3428 1adf c9a6 9fb1
000000c0: 3c02 eb2c 2aae d7ed ca9b cdd2 962c 1d2a
000000d0: e6cb 3507 44d5 5746 34b8 360a c460 ae25
000000e0: fd3b 20ba 0b46 f44e fafe c6a0 b946 b005
000000f0: b734 50ee da1a f146 201b 3ac4 9dda 173d
-0.11303267 0.03610766 0.047096945 -0.06750562 -0.13658114 -0.054946437 0.006279593 0.13658114
-0.12873165 0.025118371 0.06122603 0.020408677 -0.04552705 -0.03296786 -0.12088216 -0.0910541
0.092623994 0.0910541 -0.07064542 -0.12559186 0.012559186 -0.08006481 -0.05180664 0.08006481
-0.12245206 0.06436583 0.16483931 0.06593572 -0.047096945 0.06436583 0.058086235 -0.10675308
-0.031397965 -0.069075525 -0.10361328 -0.05180664 -0.025118371 0.15385002 -0.12873165 -0.050236743
-0.14757043 -0.12402196 -0.039247457 -0.09890359 -0.12716176 -0.0047096945 0.015698982 -0.078494914
0.13187145 0.028258167 -0.11617247 -0.07221532 -0.13344134 -0.018838778 0.13501124 0.14286074
0.12716176 0.13344134 0.14443064 0.0031397964 0.05180664 0.037677556 0.03296786 -0.0047096945
0.10832298 0.02668827 0.034537762 -0.025118371 -0.10675308 0.15698983 0.13815105 0.0847745
0.034537762 0.0863444 0.031397965 0.11460257 0.039247457 0.15228012 0.10832298 0.10204338
-0.119312264 0.06750562 -0.04552705 -0.009419389 -0.0015698982 -0.05337654 -0.100473486 -0.11146277
0.020408677 0.06436583 -0.11303267 0.0031397964 0.039247457 -0.04552705 -0.0031397964 0.0031397964
0.012559186 -0.03610766 0.078494914 -0.0879143 -0.13030155 -0.015698982 -0.07692501 0.06593572
0.006279593 0.0879143 0.11303267 -0.13972095 -0.056516334 -0.14443064 0.105183184 -0.09419389
0.015698982 -0.056516334 0.040817354 -0.12402196 0.02668827 0.11774237 0.02668827 0.015698982
0.018838778 -0.06593572 0.12559186 -0.015698982 0.050236743 -0.13658114 0.13658114 -0.10832298
-0.10675308 -0.11146277 -0.13815105 -0.07692501 0.0047096945 0.0847745 0.0894842 0.018838778
-0.06436583 -0.13030155 0.0015698982 0.05337654 0.08006481 0.12088216 0.040817354 -0.050236743
-0.0910541 -0.10204338 0.10832298 -0.12559186 -0.14914033 -0.11617247 0.11774237 0.006279593
0.021978576 0.03296786 0.09576379 -0.025118371 -0.04552705 -0.0847745 -0.06279593 0.025118371
0.11617247 0.109892875 -0.13501124 0.06279593 -0.06436583 -0.059656132 0.021978576 -0.07692501
-0.018838778 -0.05180664 -0.029828066 -0.14757043 -0.014129084 -0.07221532 0.014129084 -0.11146277
0.029828066 -0.0015698982 -0.014129084 -0.07535511 -0.12559186 -0.018838778 0.0047096945 0.073785216
0.08163471 0.06279593 0.040817354 -0.05180664 -0.0863444 -0.14129084 -0.15228012 -0.12402196
0.09419389 0.0031397964 -0.03296786 0.069075525 0.06593572 -0.12873165 -0.06436583 -0.029828066
-0.0847745 -0.15855972 -0.08006481 -0.07221532 -0.16640921 0.069075525 0.04552705 0.06593572
-0.040817354 -0.083204605 0.083204605 0.010989288 0.10675308 -0.06750562 0.13658114 0.109892875
0.08163471 -0.11303267 0.0847745 0.015698982 -0.09419389 0.15071023 -0.12873165 0.058086235
-0.0047096945 0.092623994 0.050236743 -0.109892875 0.017268881 0.109892875 -0.018838778 0.12245206
-0.009419389 -0.0031397964 -0.0910541 -0.15071023 -0.11146277 0.109892875 -0.12559186 0.007849491
-0.11460257 0.08163471 0.12559186 -0.028258167 -0.059656132 0.040817354 -0.023548473 0.109892875
0.050236743 0.04238725 0.0910541 -0.09419389 -0.15541993 -0.059656132 0.03610766 0.09576379

sequential_1/dense_4/MatMul i1 [32, 128] scale=0.0020162975 zero_point=0
00000000: f22f 29dd d0c4 2519 b6c6 3eea 15c0 56ab
00000010: a2f4 fdad ecaf b020 384a 0b17 0cc9 2011
00000020: db13 f8fb 1410 1bf2 2b50 1c07 30fd f304
00000030: 3bc8 34a5 3d00 b103 bfb9 1a41 4dcd 47d2
00000040: 284c e112 c652 b2f2 d212 b14e dedb eb17
00000050: efa4 f8ce cc40 e960 ba07 a546 c6cc bb5b
00000060: fb4d 582d acd4 e2b0 2bcc fe29 ae99 d361
00000070: 42c2 c202 b2f7 533f 0f02 4c16 3633 a3b1
00000080: 0d3c d1dc 9f0d c3d5 b2d4 bb29 4dc6 5c1c
00000090: 0d57 3a5f f712 d31e 58ef 5b13 cab3 5734
000000a0: dc5f ddba ffb7 ab34 f200 410b 25d8 31ac
000000b0: 041a b02f 9ee5 499a 33bb 3857 5403 24ff
000000c0: d9ed cbfb 1f42 bbd0 3ea6 13a7 2c13 62b4
000000d0: be1a c9f7 cf47 d006 d1f7 3fb5 11d2 c32e
000000e0: 0756 dea2 18bb 3e18 ccb8 e05b 3e44 db07
000000f0: f0a5 1666 00ef d3ef b4dc 2e08 dfce c819
-0.028228166 0.09476598 0.0826682 -0.07057042 -0.09678228 -0.12097785 0.074603006 0.05040744
-0.14920601 -0.11694526 0.12501045 -0.044358544 0.04234225 -0.12904304 0.1734016 -0.17138529
-0.18953197 -0.02419557 -0.0060488926 -0.16735269 -0.04032595 -0.1633201 -0.1613038 0.06452152
0.11291266 0.14920601 0.022179272 0.046374843 0.02419557 -0.110896364 0.06452152 0.03427706
-0.074603006 0.038309652 -0.01613038 -0.010081488 0.04032595 0.03226076 0.054440033 -0.028228166
0.0867008 0.1613038 0.05645633 0.014114083 0.09678228 -0.0060488926 -0.026211869 0.00806519
0.11896156 -0.11291266 0.104847476 -0.18348308 0.12299415 0.0 -0.15928751 0.0060488926
-0.13105933 -0.14315712 0.052423738 0.13105933 0.15525492 -0.10283118 0.14315712 -0.092749685
0.0806519 0.15323861 -0.06250522 0.036293358 -0.11694526 0.1653364 -0.1572712 -0.028228166
-0.092749685 0.036293358 -0.15928751 0.1572712 -0.06855412 -0.074603006 -0.04234225 0.046374843
-0.03427706 -0.18549937 -0.01613038 -0.10081488 -0.104847476 0.12904304 -0.046374843 0.19356456
-0.14114083 0.014114083 -0.18348308 0.14114083 -0.11694526 -0.104847476 -0.13912453 0.18348308
-0.010081488 0.15525492 0.17743418 0.09073339 -0.169369 -0.08871709 -0.060488924 -0.1613038
0.0867008 -0.104847476 -0.004032595 0.0826682 -0.1653364 -0.20767865 -0.09073339 0.19558086
0.13307564 -0.12501045 -0.12501045 0.004032595 -0.1572712 -0.018146679 0.16735269 0.12702675
0.030244462 0.004032595 0.15323861 0.044358544 0.108880065 0.10283118 -0.18751568 -0.15928751
0.026211869 0.12097785 -0.09476598 -0.072586715 -0.19558086 0.026211869 -0.12299415 -0.0867008
-0.1572712 -0.08871709 -0.13912453 0.0826682 0.15525492 -0.11694526 0.18549937 0.05645633
0.026211869 0.17541789 0.11694526 0.19154827 -0.018146679 0.036293358 -0.09073339 0.060488924
0.17743418 -0.03427706 0.18348308 0.038309652 -0.108880065 -0.15525492 0.17541789 0.104847476
-0.072586715 0.19154827 -0.07057042 -0.14114083 -0.0020162975 -0.14718972 -0.17138529 0.104847476
-0.028228166 0.0 0.13105933 0.022179272 0.074603006 -0.0806519 0.09879858 -0.169369
0.00806519 0.052423738 -0.1613038 0.09476598 -0.19759716 -0.054440033 0.14718972 -0.20566235
0.10283118 -0.13912453 0.11291266 0.17541789 0.169369 0.0060488926 0.072586715 -0.0020162975
-0.0786356 -0.038309652 -0.10686377 -0.010081488 0.06250522 0.13307564 -0.13912453 -0.09678228
0.12501045 -0.18146677 0.038309652 -0.17945048 0.08871709 0.038309652 0.19759716 -0.15323861
-0.13307564 0.052423738 -0.110896364 -0.018146679 -0.09879858 0.14315712 -0.09678228 0.012097785
-0.09476598 -0.018146679 0.12702675 -0.15122232 0.03427706 -0.092749685 -0.12299415 0.092749685
0.014114083 0.1734016 -0.06855412 -0.18953197 0.04839114 -0.13912453 0.12501045 0.04839114
-0.104847476 -0.14517343 -0.06452152 0.18348308 0.12501045 0.13710824 -0.074603006 0.014114083
-0.03226076 -0.18348308 0.044358544 0.20566235 0.0 -0.03427706 -0.09073339 -0.03427706
-0.15323861 -0.072586715 0.092749685 0.01613038 -0.06653782 -0.10081488 -0.11291266 0.05040744

sequential_1/dense_5/MatMul i1 [2, 32] scale=0.0030827185 zero_point=0
00000000: 82bf e5e2 6785 3982 fc08 32f5 e22b e2fd
00000010: 8def d119 5b01 aa47 e0b2 b529 4bd8 298c
00000020: ab99 c21b 7882 1da1 d044 ed99 0e72 59c2
00000030: ab29 440a 7f84 3006 c783 d92f 0f10 5438
-0.38842252 -0.2003767 -0.0832334 -0.09248155 0.31752 -0.37917438 0.17571495 -0.38842252
-0.012330874 0.024661748 0.15413593 -0.033909902 -0.09248155 0.1325569 -0.09248155 -0.009248155
-0.35451263 -0.052406214 -0.14488778 0.077067964 0.28052738 0.0030827185 -0.2651138 0.21887301
-0.09864699 -0.24045204 -0.23120388 0.12639146 0.23120388 -0.12330874 0.12639146 -0.35759535
-0.26203108 -0.31752 -0.19112855 0.0832334 0.3699262 -0.38842252 0.08939884 -0.29285824
-0.14797048 0.20962486 -0.05857165 -0.31752 0.043158058 0.3514299 0.27436194 -0.19112855
-0.26203108 0.12639146 0.20962486 0.030827185 0.39150524 -0.3822571 0.14797048 0.01849631
-0.17571495 -0.3853398 -0.12022602 0.14488778 0.046240777 0.049323495 0.25894836 0.17263223
