Python/quantized_models/test.tflite (tflite, 18536 bytes, 10 tensors)

sequential_5/conv2d_15/Conv2D i1 [16, 3, 3, 3]
0	0xe7	-25
1	0x11	17
2	0x91	-111
3	0x8e	-114
4	0x96	-106
5	0xca	-54
6	0x92	-110
7	0x15	21
8	0x14	20
9	0x43	67
10	0x66	102
11	0x13	19
12	0xac	-84
13	0xa2	-94
14	0xa6	-90
15	0x7f	127
16	0x7d	125
17	0x3a	58
18	0x1f	31
19	0xdc	-36
20	0xf3	-13
21	0xf0	-16
22	0x93	-109
23	0xc4	-60
24	0xf6	-10
25	0xf9	-7
26	0x94	-108
27	0xca	-54
28	0x1b	27
29	0xb5	-75
30	0x54	84
31	0xd7	-41
32	0xf4	-12
33	0x13	19
34	0xba	-70
35	0x18	24
36	0x30	48
37	0x97	-105
38	0xdb	-37
39	0x96	-106
40	0xfb	-5
41	0xf5	-11
42	0x1d	29
43	0x3a	58
44	0x65	101
45	0x02	2
46	0x1f	31
47	0xac	-84
48	0xac	-84
49	0x96	-106
50	0xf7	-9
51	0x81	-127
52	0x15	21
53	0x1f	31
54	0x25	37
55	0x4a	74
56	0xaa	-86
57	0x66	102
58	0xa2	-94
59	0x57	87
60	0xe9	-23
61	0x84	-124
62	0xc4	-60
63	0xbb	-69
64	0x6d	109
65	0xd4	-44
66	0x44	68
67	0xdf	-33
68	0x05	5
69	0x81	-127
70	0xec	-20
71	0x24	36
72	0x37	55
73	0x56	86
74	0x71	113
75	0x8b	-117
76	0xbc	-68
77	0xca	-54
78	0x6f	111
79	0xc5	-59
80	0xeb	-21
81	0x48	72
82	0x95	-107
83	0x64	100
84	0xd5	-43
85	0x6e	110
86	0xbd	-67
87	0x35	53
88	0x15	21
89	0x2d	45
90	0x22	34
91	0x4a	74
92	0x48	72
93	0x5c	92
94	0xc6	-58
95	0xe9	-23
96	0x53	83
97	0x26	38
98	0x13	19
99	0xa7	-89
100	0x6e	110
101	0xac	-84
102	0x81	-127
103	0x43	67
104	0x95	-107
105	0x0e	14
106	0x59	89
107	0x25	37
108	0xc7	-57
109	0xb1	-79
110	0x1f	31
111	0xf9	-7
112	0x7c	124
113	0x6b	107
114	0x6e	110
115	0x66	102
116	0x5b	91
117	0x3b	59
118	0xd5	-43
119	0xf7	-9
120	0x42	66
121	0x44	68
122	0x4f	79
123	0x79	121
124	0x5f	95
125	0x7f	127
126	0x6c	108
127	0x2a	42
128	0xce	-50
129	0x3b	59
130	0x1d	29
131	0x1c	28
132	0x8c	-116
133	0xcb	-53
134	0xa1	-95
135	0xad	-83
136	0x4d	77
137	0x71	113
138	0x42	66
139	0x81	-127
140	0x49	73
141	0x63	99
142	0x08	8
143	0xae	-82
144	0x0c	12
145	0xa2	-94
146	0x52	82
147	0xf0	-16
148	0x2e	46
149	0x94	-108
150	0xfb	-5
151	0xf3	-13
152	0x04	4
153	0x4c	76
154	0x4a	74
155	0x70	112
156	0x57	87
157	0x85	-123
158	0xed	-19
159	0xbb	-69
160	0xa9	-87
161	0xa3	-93
162	0x09	9
163	0xc6	-58
164	0xf2	-14
165	0xcd	-51
166	0x12	18
167	0x56	86
168	0xcf	-49
169	0x81	-127
170	0x96	-106
171	0xf4	-12
172	0xd4	-44
173	0xba	-70
174	0xfe	-2
175	0xb6	-74
176	0xde	-34
177	0x66	102
178	0xd3	-45
179	0xff	-1
180	0x4a	74
181	0xa8	-88
182	0xe7	-25
183	0x12	18
184	0x1b	27
185	0x59	89
186	0x1a	26
187	0x70	112
188	0x51	81
189	0x77	119
190	0x8d	-115
191	0xca	-54
192	0xb5	-75
193	0x8b	-117
194	0xd1	-47
195	0xe1	-31
196	0x96	-106
197	0xe4	-28
198	0xdf	-33
199	0x0e	14
200	0xf2	-14
201	0x24	36
202	0x14	20
203	0x20	32
204	0xb1	-79
205	0x43	67
206	0x61	97
207	0xd7	-41
208	0x1f	31
209	0x41	65
210	0x13	19
211	0x47	71
212	0xf3	-13
213	0xce	-50
214	0xd0	-48
215	0x81	-127
216	0xcf	-49
217	0x92	-110
218	0x5e	94
219	0x87	-121
220	0x97	-105
221	0x04	4
222	0x8b	-117
223	0x75	117
224	0x81	-127
225	0xd6	-42
226	0x15	21
227	0x30	48
228	0xbc	-68
229	0xcb	-53
230	0x45	69
231	0xfc	-4
232	0x21	33
233	0x6c	108
234	0x54	84
235	0x64	100
236	0xba	-70
237	0xd6	-42
238	0x63	99
239	0xd1	-47
240	0x75	117
241	0x4c	76
242	0xb9	-71
243	0x6f	111
244	0x97	-105
245	0x5b	91
246	0x81	-127
247	0xf7	-9
248	0xf8	-8
249	0xbb	-69
250	0xe4	-28
251	0x3a	58
252	0x98	-104
253	0xac	-84
254	0xe6	-26
255	0x26	38

sequential_5/batch_normalization_10/FusedBatchNormV3 i1 [16] scale=0.12544148 zero_point=-128
0	0x77	30.984045
1	0x79	31.234928
2	0x14	18.565338
3	0xa5	4.6413345
4	0x93	2.383388
5	0xe8	13.045914
6	0x16	18.816221
7	0x6f	29.980513
8	0xd8	11.03885
9	0x7f	31.987577
10	0x7c	31.611252
11	0x14	18.565338
12	0x75	30.733162
13	0xfd	15.680184
14	0xf5	14.676653
15	0x39	23.206673

sequential_5/batch_normalization_10/FusedBatchNormV31 i1 [16] scale=0.011294475 zero_point=126
0	0x7d	-0.011294475
1	0x7d	-0.011294475
2	0x72	-0.13553369
3	0xa3	-2.47349
4	0x80	-2.8687966
5	0x44	-0.65507954
6	0x6e	-0.1807116
7	0x7a	-0.0451779
8	0x71	-0.14682817
9	0x7e	0.0
10	0x7f	0.011294475
11	0x2a	-0.9487359
12	0x7d	-0.011294475
13	0x32	-0.8583801
14	0x72	-0.13553369
15	0x46	-0.6324906

sequential_5/conv2d_16/Conv2D i1 [16, 3, 3, 16]
0	0xf6	-10
1	0xaf	-81
2	0x49	73
3	0x0d	13
4	0x59	89
5	0xbb	-69
6	0xec	-20
7	0x68	104
8	0x43	67
9	0xac	-84
10	0x25	37
11	0xbe	-66
12	0x02	2
13	0x56	86
14	0x30	48
15	0x6f	111
16	0xcd	-51
17	0xfc	-4
18	0x4c	76
19	0x74	116
20	0xbf	-65
21	0x57	87
22	0x23	35
23	0xe9	-23
24	0xe9	-23
25	0x74	116
26	0xeb	-21
27	0x42	66
28	0x0a	10
29	0xb3	-77
30	0x98	-104
31	0xf2	-14
32	0xf0	-16
33	0x9a	-102
34	0x93	-109
35	0xc3	-61
36	0x08	8
37	0x57	87
38	0x23	35
39	0xdb	-37
40	0xfe	-2
41	0xc2	-62
42	0x31	49
43	0x6e	110
44	0xd3	-45
45	0x55	85
46	0x34	52
47	0xc6	-58
48	0xe6	-26
49	0xd2	-46
50	0xd6	-42
51	0x63	99
52	0xec	-20
53	0xfb	-5
54	0x11	17
55	0x65	101
56	0x42	66
57	0xe9	-23
58	0x30	48
59	0xf7	-9
60	0x51	81
61	0xc6	-58
62	0x15	21
63	0x39	57
64	0xae	-82
65	0x37	55
66	0xb6	-74
67	0xdb	-37
68	0x4c	76
69	0xed	-19
70	0x09	9
71	0x45	69
72	0xde	-34
73	0xef	-17
74	0x59	89
75	0xb3	-77
76	0x39	57
77	0x77	119
78	0xe3	-29
79	0x7a	122
80	0x37	55
81	0xc0	-64
82	0x15	21
83	0xef	-17
84	0xb9	-71
85	0xc7	-57
86	0x4d	77
87	0xbf	-65
88	0x0c	12
89	0xfb	-5
90	0x63	99
91	0x19	25
92	0xb7	-73
93	0xd6	-42
94	0x9c	-100
95	0x7f	127
96	0x30	48
97	0x7b	123
98	0xc2	-62
99	0xe2	-30
100	0x02	2
101	0xec	-20
102	0x20	32
103	0xa9	-87
104	0x06	6
105	0xf6	-10
106	0x37	55
107	0x2f	47
108	0xfd	-3
109	0x36	54
110	0xce	-50
111	0x54	84
112	0x27	39
113	0xc3	-61
114	0x10	16
115	0xb8	-72
116	0xa4	-92
117	0xd5	-43
118	0xa6	-90
119	0xe1	-31
120	0x41	65
121	0x2c	44
122	0xcc	-52
123	0x5e	94
124	0x55	85
125	0x71	113
126	0x1e	30
127	0xb0	-80
128	0x8f	-113
129	0x5b	91
130	0xcf	-49
131	0xbe	-66
132	0x13	19
133	0x2f	47
134	0xf0	-16
135	0xc3	-61
136	0xbe	-66
137	0x4c	76
138	0x34	52
139	0x3a	58
140	0x53	83
141	0x1b	27
142	0xdd	-35
143	0xb3	-77
144	0xf5	-11
145	0xaa	-86
146	0x01	1
147	0x23	35
148	0xc1	-63
149	0x00	0
150	0x2b	43
151	0xdb	-37
152	0x06	6
153	0xf9	-7
154	0xa3	-93
155	0x49	73
156	0xdc	-36
157	0x41	65
158	0x18	24
159	0xa0	-96
160	0xdf	-33
161	0x49	73
162	0xaf	-81
163	0xe9	-23
164	0x15	21
165	0x35	53
166	0xd5	-43
167	0xba	-70
168	0xc2	-62
169	0xa8	-88
170	0x3b	59
171	0xe1	-31
172	0xe3	-29
173	0xb7	-73
174	0x29	41
175	0x1c	28
176	0xe2	-30
177	0xca	-54
178	0x11	17
179	0x24	36
180	0x4d	77
181	0xc4	-60
182	0xe6	-26
183	0xc2	-62
184	0x29	41
185	0xdc	-36
186	0x2f	47
187	0x1f	31
188	0xb3	-77
189	0xcb	-53
190	0xae	-82
191	0xbe	-66
192	0xd6	-42
193	0xa4	-92
194	0xc2	-62
195	0x19	25
196	0xbc	-68
197	0x62	98
198	0xa8	-88
199	0xe5	-27
200	0x1b	27
201	0xef	-17
202	0x0e	14
203	0xad	-83
204	0xb6	-74
205	0x32	50
206	0xb1	-79
207	0x3e	62
208	0x09	9
209	0xa6	-90
210	0xbc	-68
211	0x42	66
212	0xfc	-4
213	0x02	2
214	0x34	52
215	0xa6	-90
216	0x1c	28
217	0xe8	-24
218	0xd7	-41
219	0x18	24
220	0xa7	-89
221	0x1a	26
222	0xda	-38
223	0x99	-103
224	0x17	23
225	0x27	39
226	0xf3	-13
227	0x2c	44
228	0xfa	-6
229	0x44	68
230	0xcd	-51
231	0x32	50
232	0xd8	-40
233	0x25	37
234	0x4d	77
235	0x5b	91
236	0x1d	29
237	0xb8	-72
238	0xa8	-88
239	0x81	-127
240	0xb1	-79
241	0x4a	74
242	0xbb	-69
243	0xd8	-40
244	0x55	85
245	0xe9	-23
246	0x4f	79
247	0xe6	-26
248	0xcf	-49
249	0x07	7
250	0x48	72
251	0x09	9
252	0x51	81
253	0x01	1
254	0xb3	-77
255	0xb4	-76

sequential_5/batch_normalization_11/FusedBatchNormV3 i1 [16] scale=0.009731721 zero_point=-128
0	0xf7	1.1580749
1	0x39	1.8003684
2	0xe3	0.9634404
3	0x09	1.3332458
4	0x7c	2.4523938
5	0x5b	2.131247
6	0xe9	1.0218307
7	0xfc	1.2067335
8	0x01	1.2553921
9	0x6c	2.2966862
10	0xe9	1.0218307
11	0x7f	2.4815888
12	0x44	1.9074173
13	0x20	1.5570754
14	0xed	1.0607576
15	0x44	1.9074173

sequential_5/batch_normalization_11/FusedBatchNormV31 i1 [16] scale=0.0030768944 zero_point=127
0	0x8c	-0.7476854
1	0xc6	-0.5692255
2	0xe8	-0.46461105
3	0xac	-0.6492247
4	0xe3	-0.47999552
5	0x02	-0.38461182
6	0xc7	-0.5661486
7	0xbb	-0.60307133
8	0x99	-0.7076857
9	0xbb	-0.60307133
10	0x80	-0.78460807
11	0xeb	-0.45538038
12	0xb8	-0.612302
13	0xd6	-0.51999515
14	0xb1	-0.63384026
15	0xea	-0.45845726

sequential_5/conv2d_17/Conv2D i1 [8, 3, 3, 16]
0	0x17	23
1	0xb7	-73
2	0xf8	-8
3	0x1b	27
4	0xa0	-96
5	0x6e	110
6	0xd2	-46
7	0x23	35
8	0x97	-105
9	0xfb	-5
10	0x8c	-116
11	0x96	-106
12	0xad	-83
13	0x96	-106
14	0x71	113
15	0x1a	26
16	0x38	56
17	0x8e	-114
18	0xca	-54
19	0xb0	-80
20	0x6a	106
21	0xec	-20
22	0xf3	-13
23	0xd6	-42
24	0xe4	-28
25	0xc1	-63
26	0x9a	-102
27	0x66	102
28	0x1c	28
29	0x51	81
30	0x1e	30
31	0xa2	-94
32	0x34	52
33	0x50	80
34	0x5c	92
35	0x31	49
36	0xea	-22
37	0x77	119
38	0x55	85
39	0xb6	-74
40	0xbc	-68
41	0x03	3
42	0xa2	-94
43	0x21	33
44	0xec	-20
45	0x07	7
46	0x28	40
47	0x6c	108
48	0xda	-38
49	0x64	100
50	0xba	-70
51	0x12	18
52	0xb9	-71
53	0x43	67
54	0x23	35
55	0xf6	-10
56	0x04	4
57	0xb2	-78
58	0xd2	-46
59	0xd1	-47
60	0x57	87
61	0x3b	59
62	0x6d	109
63	0x9f	-97
64	0x4c	76
65	0xc8	-56
66	0x36	54
67	0xaa	-86
68	0xfe	-2
69	0x1b	27
70	0xc9	-55
71	0xd7	-41
72	0x97	-105
73	0x61	97
74	0x0d	13
75	0x64	100
76	0x2e	46
77	0xef	-17
78	0x68	104
79	0x23	35
80	0x49	73
81	0x0c	12
82	0xbb	-69
83	0xc5	-59
84	0xbf	-65
85	0x12	18
86	0xc9	-55
87	0x85	-123
88	0xe0	-32
89	0x55	85
90	0x2f	47
91	0xa6	-90
92	0xca	-54
93	0x58	88
94	0x9f	-97
95	0x33	51
96	0xcc	-52
97	0x54	84
98	0xcc	-52
99	0x6c	108
100	0xb3	-77
101	0xfd	-3
102	0x58	88
103	0x01	1
104	0x46	70
105	0x6e	110
106	0x3c	60
107	0xac	-84
108	0xf7	-9
109	0x0f	15
110	0x61	97
111	0x20	32
112	0xbb	-69
113	0x35	53
114	0xfc	-4
115	0xe6	-26
116	0xbb	-69
117	0xf4	-12
118	0xe8	-24
119	0x9a	-102
120	0x5c	92
121	0xd8	-40
122	0x92	-110
123	0x78	120
124	0xf2	-14
125	0x60	96
126	0x18	24
127	0x22	34
128	0x81	-127
129	0x38	56
130	0x46	70
131	0x2e	46
132	0x8e	-114
133	0xe2	-30
134	0x1c	28
135	0xa7	-89
136	0xd1	-47
137	0xb0	-80
138	0x1e	30
139	0x23	35
140	0x6e	110
141	0x4f	79
142	0x73	115
143	0x57	87
144	0x20	32
145	0x5f	95
146	0xc6	-58
147	0x36	54
148	0x2f	47
149	0xa1	-95
150	0xf0	-16
151	0xaa	-86
152	0x0e	14
153	0x4f	79
154	0xfc	-4
155	0x38	56
156	0x6e	110
157	0x63	99
158	0xa5	-91
159	0x2a	42
160	0x88	-120
161	0xab	-85
162	0xdd	-35
163	0xbc	-68
164	0xc9	-55
165	0x92	-110
166	0x53	83
167	0x9f	-97
168	0xf7	-9
169	0xf3	-13
170	0x2e	46
171	0xac	-84
172	0x48	72
173	0x3b	59
174	0xce	-50
175	0xc0	-64
176	0x02	2
177	0xaf	-81
178	0xeb	-21
179	0xca	-54
180	0x9a	-102
181	0x1d	29
182	0xf0	-16
183	0xef	-17
184	0x37	55
185	0x0e	14
186	0x81	-127
187	0x6d	109
188	0x32	50
189	0x47	71
190	0x49	73
191	0x4c	76
192	0x8a	-118
193	0x23	35
194	0xce	-50
195	0x03	3
196	0x3a	58
197	0x15	21
198	0x0a	10
199	0x4e	78
200	0xb7	-73
201	0xe9	-23
202	0x1d	29
203	0xd0	-48
204	0xa3	-93
205	0x56	86
206	0xba	-70
207	0xd6	-42
208	0x8e	-114
209	0x0a	10
210	0xe4	-28
211	0x01	1
212	0xb6	-74
213	0xfe	-2
214	0xa4	-92
215	0xa0	-96
216	0x38	56
217	0xee	-18
218	0xa0	-96
219	0x25	37
220	0x32	50
221	0xeb	-21
222	0xb7	-73
223	0xd3	-45
224	0x4a	74
225	0x36	54
226	0x10	16
227	0xa7	-89
228	0x0c	12
229	0x44	68
230	0x9f	-97
231	0x06	6
232	0xff	-1
233	0x39	57
234	0x2b	43
235	0x99	-103
236	0xd4	-44
237	0x6e	110
238	0x0c	12
239	0x75	117
240	0xff	-1
241	0x4c	76
242	0xd7	-41
243	0xe3	-29
244	0x89	-119
245	0x4d	77
246	0x67	103
247	0x3c	60
248	0x56	86
249	0xe4	-28
250	0x40	64
251	0xa3	-93
252	0xa7	-89
253	0xf0	-16
254	0x8a	-118
255	0xfc	-4

sequential_5/dense_15/MatMul i1 [16, 392] scale=0.0015423595 zero_point=0
0	0x22	0.052440222
1	0x1c	0.043186065
2	0xfb	-0.0077117975
3	0xd6	-0.064779095
4	0x12	0.02776247
5	0x10	0.024677752
6	0x37	0.08482977
7	0x04	0.006169438
8	0xd2	-0.07094853
9	0xbf	-0.100253366
10	0x4a	0.1141346
11	0x29	0.063236736
12	0x2e	0.07094853
13	0xb6	-0.1141346
14	0x16	0.033931907
15	0x32	0.07711797
16	0x22	0.052440222
17	0x0f	0.023135392
18	0x33	0.07866033
19	0x27	0.06015202
20	0x23	0.053982582
21	0xef	-0.026220111
22	0x41	0.100253366
23	0x14	0.03084719
24	0xbd	-0.103338085
25	0xc0	-0.09871101
26	0x15	0.032389548
27	0xf7	-0.013881235
28	0x0e	0.021593032
29	0x33	0.07866033
30	0x14	0.03084719
31	0xf3	-0.020050673
32	0x29	0.063236736
33	0x34	0.08020269
34	0xe8	-0.037016626
35	0xc4	-0.09254157
36	0x3c	0.09254157
37	0x37	0.08482977
38	0xdb	-0.0570673
39	0xcf	-0.07557561
40	0xf2	-0.021593032
41	0xd4	-0.067863815
42	0xd7	-0.063236736
43	0xdc	-0.05552494
44	0xd2	-0.07094853
45	0xd8	-0.06169438
46	0xbb	-0.106422804
47	0xba	-0.107965164
48	0xb6	-0.1141346
49	0x31	0.07557561
50	0x2c	0.067863815
51	0x35	0.08174505
52	0x02	0.003084719
53	0x3b	0.09099921
54	0xf8	-0.012338876
55	0xc9	-0.08482977
56	0xe0	-0.049355503
57	0xca	-0.08328741
58	0x04	0.006169438
59	0x3c	0.09254157
60	0xd9	-0.06015202
61	0x3a	0.08945685
62	0xde	-0.052440222
63	0xb0	-0.12338876
64	0xb6	-0.1141346
65	0xc3	-0.09408393
66	0x04	0.006169438
67	0x3f	0.09716865
68	0xc0	-0.09871101
69	0xeb	-0.032389548
70	0xd4	-0.067863815
71	0x00	0.0
72	0xd9	-0.06015202
73	0x48	0.11104988
74	0x24	0.05552494
75	0xfa	-0.009254157
76	0x37	0.08482977
77	0x14	0.03084719
78	0x1d	0.044728424
79	0xeb	-0.032389548
80	0xbf	-0.100253366
81	0xb8	-0.11104988
82	0x18	0.037016626
83	0xbd	-0.103338085
84	0x39	0.08791449
85	0xbf	-0.100253366
86	0x1f	0.047813144
87	0x03	0.0046270783
88	0xd5	-0.066321455
89	0x4d	0.11876168
90	0xd4	-0.067863815
91	0x39	0.08791449
92	0xe5	-0.041643705
93	0x21	0.050897863
94	0x07	0.010796516
95	0xe1	-0.047813144
96	0x10	0.024677752
97	0x00	0.0
98	0xbe	-0.101795726
99	0x04	0.006169438
100	0xe4	-0.043186065
101	0x21	0.050897863
102	0x07	0.010796516
103	0x11	0.026220111
104	0xf3	-0.020050673
105	0xec	-0.03084719
106	0xd3	-0.069406174
107	0xc6	-0.08945685
108	0x0e	0.021593032
109	0x17	0.035474267
110	0x08	0.012338876
111	0x03	0.0046270783
112	0xfc	-0.006169438
113	0x49	0.11259224
114	0xeb	-0.032389548
115	0xf1	-0.023135392
116	0x4b	0.11567696
117	0xec	-0.03084719
118	0x0d	0.020050673
119	0x33	0.07866033
120	0xdd	-0.053982582
121	0xb0	-0.12338876
122	0x00	0.0
123	0x34	0.08020269
124	0x42	0.101795726
125	0xca	-0.08328741
126	0x2b	0.066321455
127	0xdb	-0.0570673
128	0xb7	-0.11259224
129	0x1d	0.044728424
130	0xdd	-0.053982582
131	0xac	-0.12955819
132	0xc1	-0.09716865
133	0x3f	0.09716865
134	0xbd	-0.103338085
135	0x33	0.07866033
136	0xa2	-0.14498179
137	0x00	0.0
138	0x45	0.106422804
139	0x43	0.103338085
140	0x4f	0.1218464
141	0xf8	-0.012338876
142	0xc3	-0.09408393
143	0xe3	-0.044728424
144	0x47	0.10950752
145	0xd5	-0.066321455
146	0x1f	0.047813144
147	0xf1	-0.023135392
148	0xec	-0.03084719
149	0x12	0.02776247
150	0x2f	0.07249089
151	0x20	0.049355503
152	0x13	0.02930483
153	0xb9	-0.10950752
154	0x3d	0.09408393
155	0xc5	-0.09099921
156	0xab	-0.13110055
157	0x19	0.038558986
158	0x25	0.0570673
159	0xe2	-0.046270784
160	0xba	-0.107965164
161	0x16	0.033931907
162	0xc7	-0.08791449
163	0xae	-0.12647347
164	0x4e	0.12030404
165	0x02	0.003084719
166	0x43	0.103338085
167	0xba	-0.107965164
168	0x1a	0.040101346
169	0xee	-0.02776247
170	0xcb	-0.08174505
171	0xcb	-0.08174505
172	0xde	-0.052440222
173	0xd5	-0.066321455
174	0xcd	-0.07866033
175	0xe6	-0.040101346
176	0xd7	-0.063236736
177	0xd8	-0.06169438
178	0xd1	-0.07249089
179	0x25	0.0570673
180	0xf0	-0.024677752
181	0x2c	0.067863815
182	0x30	0.07403325
183	0xd6	-0.064779095
184	0x16	0.033931907
185	0x13	0.02930483
186	0xa9	-0.13418527
187	0xc7	-0.08791449
188	0x1b	0.041643705
189	0x01	0.0015423595
190	0xa8	-0.13572763
191	0x12	0.02776247
192	0xe7	-0.038558986
193	0x16	0.033931907
194	0x15	0.032389548
195	0xdc	-0.05552494
196	0x26	0.05860966
197	0x13	0.02930483
198	0xee	-0.02776247
199	0xbd	-0.103338085
200	0x43	0.103338085
201	0x13	0.02930483
202	0x16	0.033931907
203	0xd4	-0.067863815
204	0xbc	-0.104880445
205	0x20	0.049355503
206	0xf2	-0.021593032
207	0x54	0.12955819
208	0xd6	-0.064779095
209	0xd7	-0.063236736
210	0xcf	-0.07557561
211	0xfb	-0.0077117975
212	0xe5	-0.041643705
213	0xdb	-0.0570673
214	0xea	-0.033931907
215	0xe2	-0.046270784
216	0xf7	-0.013881235
217	0xef	-0.026220111
218	0xc3	-0.09408393
219	0xea	-0.033931907
220	0x02	0.003084719
221	0xd8	-0.06169438
222	0xe0	-0.049355503
223	0xe7	-0.038558986
224	0x27	0.06015202
225	0x2a	0.064779095
226	0x30	0.07403325
227	0x48	0.11104988
228	0x02	0.003084719
229	0x35	0.08174505
230	0x3b	0.09099921
231	0xca	-0.08328741
232	0xdf	-0.050897863
233	0xba	-0.107965164
234	0xc1	-0.09716865
235	0x28	0.06169438
236	0xef	-0.026220111
237	0xe8	-0.037016626
238	0xc3	-0.09408393
239	0x07	0.010796516
240	0x2a	0.064779095
241	0xf7	-0.013881235
242	0xaf	-0.12493112
243	0x37	0.08482977
244	0x14	0.03084719
245	0xcd	-0.07866033
246	0xe0	-0.049355503
247	0xbb	-0.106422804
248	0xe2	-0.046270784
249	0xd2	-0.07094853
250	0x40	0.09871101
251	0xa6	-0.13881235
252	0x3d	0.09408393
253	0x4e	0.12030404
254	0xa6	-0.13881235
255	0xd8	-0.06169438

sequential_5/dense_16/MatMul i1 [8, 16] scale=0.0042124526 zero_point=0
0	0xd7	-0.17271055
1	0x49	0.30750903
2	0x23	0.14743584
3	0x8d	-0.48443204
4	0xda	-0.16007319
5	0xe4	-0.11794867
6	0xae	-0.3454211
7	0xa0	-0.40439546
8	0xa9	-0.36648336
9	0xcd	-0.21483508
10	0xbf	-0.2738094
11	0x4d	0.32435885
12	0xf2	-0.058974337
13	0x14	0.08424905
14	0x43	0.2822343
15	0x22	0.14322339
16	0x7f	0.5349815
17	0xcd	-0.21483508
18	0x1e	0.12637357
19	0xd5	-0.18113546
20	0xb2	-0.3285713
21	0xc7	-0.2401098
22	0xd3	-0.18956037
23	0x1c	0.11794867
24	0xda	-0.16007319
25	0x43	0.2822343
26	0x43	0.2822343
27	0xce	-0.21062262
28	0xb0	-0.3369962
29	0xc7	-0.2401098
30	0xfa	-0.025274716
31	0x06	0.025274716
32	0x5a	0.37912074
33	0x00	0.0
34	0x21	0.13901094
35	0x10	0.06739924
36	0xaa	-0.36227092
37	0xb3	-0.32435885
38	0x06	0.025274716
39	0x3c	0.25274715
40	0x48	0.3032966
41	0x6d	0.45915732
42	0xaa	-0.36227092
43	0x90	-0.4717947
44	0x43	0.2822343
45	0xe8	-0.101098865
46	0xaf	-0.34120867
47	0x99	-0.43388262
48	0x2d	0.18956037
49	0xc7	-0.2401098
50	0x47	0.29908413
51	0xdd	-0.14743584
52	0x18	0.101098865
53	0xd7	-0.17271055
54	0xd0	-0.20219773
55	0x90	-0.4717947
56	0x1a	0.109523766
57	0xcf	-0.20641017
58	0x48	0.3032966
59	0x15	0.0884615
60	0x3a	0.24432226
61	0x24	0.1516483
62	0x39	0.2401098
63	0x9a	-0.42967016
64	0x9e	-0.41282034
65	0x31	0.20641017
66	0xdf	-0.13901094
67	0x32	0.21062262
68	0xd5	-0.18113546
69	0xbd	-0.2822343
70	0x0e	0.058974337
71	0x35	0.22325999
72	0x70	0.4717947
73	0x8b	-0.49285695
74	0x38	0.23589735
75	0xe7	-0.10531131
76	0x2f	0.19798528
77	0x30	0.20219773
78	0x0d	0.054761883
79	0xa5	-0.38333318
80	0xd6	-0.176923
81	0x16	0.09267396
82	0xbc	-0.28644678
83	0xf5	-0.04633698
84	0x32	0.21062262
85	0xa4	-0.38754565
86	0x60	0.40439546
87	0x35	0.22325999
88	0x09	0.037912074
89	0xd0	-0.20219773
90	0x4c	0.32014638
91	0xbe	-0.27802187
92	0x25	0.15586075
93	0x93	-0.45915732
94	0xca	-0.22747244
95	0x2e	0.19377282
96	0xa6	-0.37912074
97	0x41	0.2738094
98	0x93	-0.45915732
99	0x4d	0.32435885
100	0xd5	-0.18113546
101	0xf4	-0.050549433
102	0xa9	-0.36648336
103	0xe5	-0.11373622
104	0x79	0.50970674
105	0xff	-0.0042124526
106	0x55	0.35805848
107	0xde	-0.14322339
108	0xa6	-0.37912074
109	0x2e	0.19377282
110	0x93	-0.45915732
111	0xfe	-0.008424905
112	0x03	0.012637358
113	0x49	0.30750903
114	0x3c	0.25274715
115	0xf0	-0.06739924
116	0x77	0.50128186
117	0x69	0.44230753
118	0x27	0.16428564
119	0xed	-0.080036595
120	0xbe	-0.27802187
121	0xa8	-0.37069583
122	0xcb	-0.22325999
123	0xab	-0.35805848
124	0xc4	-0.25274715
125	0x3f	0.26538453
126	0x22	0.14322339
127	0x11	0.071611695

sequential_5/dense_17/MatMul i1 [3, 8] scale=0.0052687717 zero_point=0
0	0xe3	-0.15279438
1	0xf6	-0.052687716
2	0x57	0.45838314
3	0x9c	-0.52687716
4	0x43	0.3530077
5	0xa2	-0.49526453
6	0xf0	-0.08430035
7	0x02	0.010537543
8	0x65	0.5321459
9	0x50	0.42150173
10	0x7b	0.6480589
11	0x3b	0.31085753
12	0x5e	0.49526453
13	0x2a	0.22128841
14	0xfd	-0.015806315
15	0xc9	-0.28978243
16	0x73	0.60590875
17	0x28	0.21075086
18	0x11	0.08956912
19	0x2f	0.24763227
20	0x81	-0.669134
21	0x21	0.17386946
22	0xcb	-0.2792449
23	0x45	0.36354524
