Python/mnist_model.tflite (tflite, 11592 bytes, 3 tensors)

sequential_6/conv2d_18/Conv2D i1 [6, 3, 3, 1]
8 -121 -71 -127 -7 61 -71 43
63 -108 5 53 55 127 31 -9
-4 -87 67 14 53 -31 87 63
-117 -127 -43 -15 -9 73 -127 68
121 -113 40 45 101 127 86 32
112 1 18 46 60 102 119 80
-11 -28 10 -89 -127 -61
00000000: 0887 b981 f93d b92b 3f94 0535 377f 1ff7
00000010: fca9 430e 35e1 573f 8b81 d5f1 f749 8144
00000020: 798f 282d 657f 5620 7001 122e 3c66 7750
00000030: f5e4 0aa7 81c3

sequential_6/conv2d_19/Conv2D i1 [6, 3, 3, 6]
42 23 42 39 11 0 89 -7
-127 -7 -53 4 104 76 -4 -33
-10 96 52 43 -116 78 -2 -108
44 93 -118 0 40 -8 122 85
-51 11 -23 98 -18 33 -73 61
-10 -108 2 14 -104 35 -15 -76
-16 93 9 8 3 46 11 45
-89 104 57 -104 -37 56 8 -1
46 7 28 -67 28 -62 -32 7
75 72 -84 93 68 -34 -36 -2
-55 -47 44 49 69 -118 -29 -26
-94 -23 104 22 -127 43 52 -14
4 -78 -33 -105 -29 17 55 -39
18 -19 -91 -38 4 -20 6 50
13 -45 -20 28 1 68 42 -52
-41 -12 -52 -31 -19 -80 20 -8
-26 26 -33 -46 -98 -14 20 6
20 -41 -127 -1 38 31 -3 34
-3 -14 -80 -43 7 -98 -74 44
-36 -5 35 -57 -117 -3 25 33
48 49 0 -23 -61 -6 -37 -43
12 -11 -29 -68 -47 19 -27 -79
-127 -75 -24 -45 -4 -41 -91 -27
18 -77 19 45 -45 1 17 -43
-3 22 61 34 24 18 2 39
65 -4 37 50 -11 43 -35 -9
58 1 -102 9 46 13 18 70
-48 -39 45 -22 22 72 -41 63
35 7 -89 46 -47 71 -44 -33
-26 21 -5 23 51 2 -23 59
2 26 -3 -43 9 32 -127 62
75 -32 -16 65 -14 58 2 34
00000000: 2a17 2a27 0b00 59f9 81f9 cb04 684c fcdf
00000010: f660 342b 8c4e fe94 2c5d 8a00 28f8 7a55
00000020: cd0b e962 ee21 b73d f694 020e 9823 f1b4
00000030: f05d 0908 032e 0b2d a768 3998 db38 08ff
00000040: 2e07 1cbd 1cc2 e007 4b48 ac5d 44de dcfe
00000050: c9d1 2c31 458a e3e6 a2e9 6816 812b 34f2
00000060: 04b2 df97 e311 37d9 12ed a5da 04ec 0632
00000070: 0dd3 ec1c 0144 2acc d7f4 cce1 edb0 14f8
00000080: e61a dfd2 9ef2 1406 14d7 81ff 261f fd22
00000090: fdf2 b0d5 079e b62c dcfb 23c7 8bfd 1921
000000a0: 3031 00e9 c3fa dbd5 0cf5 e3bc d113 e5b1
000000b0: 81b5 e8d3 fcd7 a5e5 12b3 132d d301 11d5
000000c0: fd16 3d22 1812 0227 41fc 2532 f52b ddf7
000000d0: 3a01 9a09 2e0d 1246 d0d9 2dea 1648 d73f
000000e0: 2307 a72e d147 d4df e615 fb17 3302 e93b
000000f0: 021a fdd5 0920 813e 4be0 f041 f23a 0222

sequential_6/dense_11/MatMul i1 [10, 726] scale=0.01128163 zero_point=0
-0.14666119 0.15794282 -0.29332238 -0.64305294 -0.32716727 0.12409793 -0.34973052 -0.01128163
-0.2707591 -0.13537955 -0.16922446 0.30460402 -0.22563261 -0.23691423 0.02256326 -0.09025304
-0.57536316 0.20306934 -0.16922446 -0.18050608 0.46254683 -0.20306934 -0.02256326 0.36101216
-0.056408152 -0.23691423 0.16922446 -0.03384489 -0.16922446 0.4963917 0.07897141 -0.29332238
-0.04512652 -0.112816304 -0.09025304 0.32716727 -0.02256326 0.12409793 0.28204075 -0.06768978
-0.24819586 0.3722938 0.09025304 -0.20306934 0.02256326 -0.01128163 0.0 0.23691423
-0.06768978 -0.12409793 -0.14666119 -0.15794282 -0.056408152 0.3384489 -0.4061387 -0.3384489
-0.3384489 -0.13537955 0.24819586 0.10153467 -0.21435097 0.09025304 -0.3835754 0.04512652
-0.21435097 0.22563261 0.01128163 0.06768978 -0.45126522 -0.01128163 -0.31588563 0.03384489
-0.02256326 -0.16922446 -0.04512652 0.06768978 -0.06768978 0.04512652 0.03384489 -0.3384489
0.22563261 -0.10153467 0.18050608 0.01128163 -0.03384489 -0.29332238 0.15794282 0.03384489
0.06768978 -0.39485705 -0.02256326 -0.24819586 0.02256326 0.03384489 -0.20306934 -0.12409793
0.04512652 -0.20306934 -0.07897141 -0.09025304 -0.07897141 0.112816304 -0.03384489 -0.03384489
0.04512652 0.10153467 0.04512652 0.06768978 -0.06768978 -0.34973052 0.14666119 0.112816304
0.0 -0.24819586 -0.22563261 -0.32716727 -0.3384489 0.16922446 0.23691423 -0.20306934
-0.12409793 -0.29332238 0.02256326 0.09025304 0.4174203 0.13537955 -0.2707591 -0.12409793
-0.12409793 0.03384489 0.58664477 0.24819586 0.06768978 0.03384489 -0.46254683 0.03384489
-0.23691423 -0.01128163 -0.09025304 0.0 0.15794282 0.2594775 0.10153467 -0.14666119
0.112816304 -0.2594775 0.03384489 0.01128163 0.15794282 -0.4851101 -0.06768978 -0.1917877
-0.13537955 0.06768978 0.056408152 -0.29332238 0.06768978 0.06768978 0.0 -0.112816304
-0.01128163 -0.36101216 -0.12409793 -0.24819586 0.056408152 -0.01128163 -0.01128163 0.04512652
-0.18050608 -0.31588563 -0.01128163 -0.01128163 -0.03384489 -0.06768978 -0.112816304 -0.03384489
0.12409793 0.01128163 -0.2707591 -0.20306934 -0.16922446 -0.2594775 -0.2594775 -0.16922446
0.14666119 -0.5076733 0.01128163 -0.2594775 0.22563261 0.02256326 0.22563261 -0.62048966
-0.02256326 0.07897141 -0.4174203 -0.06768978 0.45126522 0.0 0.18050608 0.02256326
-0.43998358 0.056408152 -0.18050608 -0.1917877 -0.01128163 -0.31588563 0.02256326 0.21435097
0.1917877 -0.22563261 -0.01128163 -0.06768978 0.02256326 0.15794282 0.22563261 -0.16922446
-0.12409793 0.16922446 -0.056408152 0.07897141 -0.056408152 -0.13537955 0.09025304 0.16922446
-0.04512652 0.23691423 -0.13537955 -0.13537955 0.02256326 -0.16922446 0.10153467 -0.01128163
-0.02256326 -0.2707591 -0.3384489 -0.112816304 0.112816304 -0.03384489 -0.01128163 -0.1917877
-0.20306934 -0.1917877 0.43998358 0.23691423 -0.13537955 -0.10153467 -0.29332238 -0.06768978
0.16922446 0.09025304 0.07897141 -0.24819586 0.16922446 -0.03384489 0.09025304 -0.01128163
00000000: f30e e6c7 e30b e1ff e8f4 f11b eceb 02f8
00000010: cd12 f1f0 29ee fe20 fbeb 0ffd f12c 07e6
00000020: fcf6 f81d fe0b 19fa ea21 08ee 02ff 0015
00000030: faf5 f3f2 fb1e dce2 e2f4 1609 ed08 de04
00000040: ed14 0106 d8ff e403 fef1 fc06 fa04 03e2
00000050: 14f7 1001 fde6 0e03 06dd feea 0203 eef5
00000060: 04ee f9f8 f90a fdfd 0409 0406 fae1 0d0a
00000070: 00ea ece3 e20f 15ee f5e6 0208 250c e8f5
00000080: f503 3416 0603 d703 ebff f800 0e17 09f3
00000090: 0ae9 0301 0ed5 faef f406 05e6 0606 00f6
000000a0: ffe0 f5ea 05ff ff04 f0e4 ffff fdfa f6fd
000000b0: 0b01 e8ee f1e9 e9f1 0dd3 01e9 1402 14c9
000000c0: fe07 dbfa 2800 1002 d905 f0ef ffe4 0213
000000d0: 11ec fffa 020e 14f1 f50f fb07 fbf4 080f
000000e0: fc15 f4f4 02f1 09ff fee8 e2f6 0afd ffef
000000f0: eeef 2715 f4f7 e6fa 0f08 07ea 0ffd 08ff
