Python/mnist_model.tflite (tflite, 168656 bytes, 3 tensors)

sequential_2/conv2d_4/Conv2D i1 [6, 3, 3, 3]
-62 26 108 -75 -22 -69 -26 50
101 6 -67 -73 -26 11 35 -90
-94 65 -60 -2 64 -58 -76 -127
-71 -77 122 -28 10 -94 68 3
-111 -25 -93 46 39 119 -96 -62
-35 74 66 20 9 17 127 -78
48 90 -89 -20 93 -106 -1 -104
-19 -127 -120 74 42 -3 -32 -43
-105 -40 50 113 -101 114 38 17
-26 -20 -72 -51 3 -50 -76 62
112 32 72 59 90 15 9 84
-85 -91 45 -117 -106 -81 -11 65
-127 111 53 1 39 29 -114 -49
-58 -91 -12 -110 -49 -52 -46 -36
72 -72 -102 -25 -118 64 -2 96
-86 -29 83 127 55 -65 -101 125
-32 -75 86 113 23 -35 107 62
30 103 110 -1 85 -77 89 52
-16 -127 66 -105 -89 -114 -72 97
81 -85 -74 18 77 -19 121 -100
-109 29
00000000: c21a 6cb5 eabb e632 6506 bdb7 e60b 23a6
00000010: a241 c4fe 40c6 b481 b9b3 7ae4 0aa2 4403
00000020: 91e7 a32e 2777 a0c2 dd4a 4214 0911 7fb2
00000030: 305a a7ec 5d96 ff98 ed81 884a 2afd e0d5
00000040: 97d8 3271 9b72 2611 e6ec b8cd 03ce b43e
00000050: 7020 483b 5a0f 0954 aba5 2d8b 96af f541
00000060: 816f 3501 271d 8ecf c6a5 f492 cfcc d2dc
00000070: 48b8 9ae7 8a40 fe60 aae3 537f 37bf 9b7d
00000080: e0b5 5671 17dd 6b3e 1e67 6eff 55b3 5934
00000090: f081 4297 a78e b861 51ab b612 4ded 799c
000000a0: 931d

sequential_2/conv2d_5/Conv2D i1 [6, 3, 3, 6]
-44 -60 -6 102 -28 30 87 -20
-81 -26 -45 61 -101 -34 40 -89
-93 63 9 -4 95 -36 -67 -8
2 -111 84 80 -126 122 -49 -87
3 62 -19 83 -89 78 94 48
-124 -20 -33 23 126 127 -62 68
27 -103 99 49 22 21 -2 59
85 56 -112 48 -2 -49 -46 76
36 28 45 2 -50 104 67 93
0 -44 38 45 -66 -80 93 65
-65 -21 104 -102 -95 33 108 -66
11 -33 109 9 -81 82 -99 123
40 30 -9 78 54 -19 -106 126
-98 9 127 75 113 11 36 84
-72 101 93 -78 31 9 7 64
53 -80 97 39 51 110 46 -14
13 -94 -28 35 72 -10 -98 53
45 26 54 -127 -11 -18 60 -3
-75 -2 102 39 21 -59 -87 -69
105 -67 -42 -39 -24 -76 -73 -74
104 -23 -40 60 -96 -79 43 69
85 88 -31 43 67 30 -33 32
-95 -54 14 -3 18 85 26 44
16 1 63 46 -66 -67 27 -71
-66 127 -94 -15 102 -78 -15 126
83 16 22 -86 66 -52 -81 36
-14 -77 40 -60 33 35 20 82
18 96 -3 58 25 -24 32 -10
22 -54 10 -55 -6 -29 -31 46
58 -59 66 105 74 -19 50 66
-15 116 -21 -42 -24 13 75 -20
-12 56 127 -30 -27 -3 66 -74
00000000: d4c4 fa66 e41e 57ec afe6 d33d 9bde 28a7
00000010: a33f 09fc 5fdc bdf8 0291 5450 827a cfa9
00000020: 033e ed53 a74e 5e30 84ec df17 7e7f c244
00000030: 1b99 6331 1615 fe3b 5538 9030 fecf d24c
00000040: 241c 2d02 ce68 435d 00d4 262d beb0 5d41
00000050: bfeb 689a a121 6cbe 0bdf 6d09 af52 9d7b
00000060: 281e f74e 36ed 967e 9e09 7f4b 710b 2454
00000070: b865 5db2 1f09 0740 35b0 6127 336e 2ef2
00000080: 0da2 e423 48f6 9e35 2d1a 3681 f5ee 3cfd
00000090: b5fe 6627 15c5 a9bb 69bd d6d9 e8b4 b7b6
000000a0: 68e9 d83c a0b1 2b45 5558 e12b 431e df20
000000b0: a1ca 0efd 1255 1a2c 1001 3f2e bebd 1bb9
000000c0: be7f a2f1 66b2 f17e 5310 16aa 42cc af24
000000d0: f2b3 28c4 2123 1452 1260 fd3a 19e8 20f6
000000e0: 16ca 0ac9 fae3 e12e 3ac5 4269 4aed 3242
000000f0: f174 ebd6 e80d 4bec f438 7fe2 e5fd 42b6

sequential_2/dense_2/MatMul i1 [2, 82134] scale=0.0014586799 zero_point=0
-0.026256239 0.07439268 0.052512478 0.09043816 0.03500832 0.078768715 -0.029173598 0.07439268
0.056888517 0.09627287 0.030632278 0.062723234 -0.026256239 0.062723234 0.043760397 0.09189683
0.06418192 0.072933994 -0.030632278 0.059805878 0.03792568 0.09773155 0.08606211 0.09043816
-0.036466997 0.056888517 0.026256239 0.10210759 0.09043816 0.105024956 -0.033549637 0.036466997
0.024797559 0.088979475 0.07585136 0.113777034 -0.024797559 0.020421518 0.029173598 0.08460344
0.07585136 0.094814196 -0.01750416 0.04230172 0.026256239 0.08606211 0.08168607 0.10064892
-0.0131281195 0.061264556 0.026256239 0.103566274 0.09189683 0.09627287 -0.03209096 0.08752079
0.03209096 0.11815307 0.10210759 0.09189683 -0.024797559 0.11085967 0.030632278 0.119611755
0.12252911 0.10210759 -0.023338879 0.08752079 0.04521908 0.13565724 0.08606211 0.115235716
-0.01750416 0.08606211 0.046677757 0.13565724 0.07001664 0.115235716 -0.01750416 0.07147531
-0.010210759 0.07585136 0.08752079 0.10210759 -0.03209096 0.040843036 -0.04521908 0.03209096
0.078768715 0.093355514 -0.026256239 0.026256239 -0.03500832 0.033549637 0.068557955 0.07439268
-0.020421518 0.00875208 -0.023338879 0.055429835 0.052512478 0.051053796 -0.033549637 0.0029173598
-0.0072933994 0.043760397 0.027714917 0.046677757 -0.030632278 0.01750416 0.0 0.023338879
0.04230172 0.036466997 -0.024797559 0.06709927 0.0072933994 0.036466997 0.0656406 0.03500832
-0.040843036 0.068557955 0.01750416 0.072933994 0.08460344 0.056888517 -0.03500832 0.051053796
0.026256239 0.056888517 0.08606211 0.07001664 -0.029173598 0.039384358 0.03500832 0.052512478
0.09189683 0.048136435 -0.03209096 0.046677757 0.03500832 0.07001664 0.08168607 0.039384358
-0.04230172 0.056888517 0.0029173598 0.088979475 0.048136435 0.068557955 -0.03209096 0.04230172
-0.024797559 0.062723234 0.036466997 0.08752079 -0.026256239 -0.0131281195 -0.043760397 0.03792568
0.014586799 0.088979475 -0.020421518 -0.011669439 -0.029173598 0.03792568 0.04230172 0.07147531
-0.0131281195 0.033549637 -0.00437604 0.03500832 0.0656406 0.07001664 -0.01896284 0.07585136
-0.00437604 0.051053796 0.039384358 0.046677757 -0.011669439 0.07001664 0.021880198 0.078768715
0.027714917 0.026256239 -0.010210759 0.068557955 0.043760397 0.059805878 0.0029173598 0.01750416
-0.0072933994 0.051053796 0.043760397 0.051053796 0.052512478 0.011669439 -0.026256239 0.06418192
0.055429835 0.068557955 0.053971156 0.024797559 -0.023338879 0.059805878 0.053971156 0.07585136
0.053971156 0.043760397 -0.027714917 0.04521908 0.040843036 0.06418192 0.027714917 0.03209096
-0.014586799 0.03792568 0.03209096 0.07439268 0.020421518 0.014586799 -0.01750416 0.01604548
0.014586799 0.058347195 0.0 0.027714917 -0.021880198 0.00875208 -0.0014586799 0.04521908
-0.01896284 0.03209096 -0.020421518 0.01750416 -0.00437604 0.026256239 -0.03500832 0.03209096
-0.00437604 0.039384358 -0.010210759 0.027714917 -0.0058347196 0.027714917 -0.014586799 0.021880198
-0.01604548 0.051053796 0.020421518 0.068557955 -0.00875208 0.04521908 -0.021880198 0.061264556
00000000: ee33 243e 1836 ec33 2742 152b ee2b 1e3f
00000010: 2c32 eb29 1a43 3b3e e727 1246 3e48 e919
00000020: 113d 344e ef0e 143a 3441 f41d 123b 3845
00000030: f72a 1247 3f42 ea3c 1651 463f ef4c 1552
00000040: 5446 f03c 1f5d 3b4f f43b 205d 304f f431
00000050: f934 3c46 ea1c e116 3640 ee12 e817 2f33
00000060: f206 f026 2423 e902 fb1e 1320 eb0c 0010
00000070: 1d19 ef2e 0519 2d18 e42f 0c32 3a27 e823
00000080: 1227 3b30 ec1b 1824 3f21 ea20 1830 381b
00000090: e327 023d 212f ea1d ef2b 193c eef7 e21a
000000a0: 0a3d f2f8 ec1a 1d31 f717 fd18 2d30 f334
000000b0: fd23 1b20 f830 0f36 1312 f92f 1e29 020c
000000c0: fb23 1e23 2408 ee2c 262f 2511 f029 2534
000000d0: 251e ed1f 1c2c 1316 f61a 1633 0e0a f40b
000000e0: 0a28 0013 f106 ff1f f316 f20c fd12 e816
000000f0: fd1b f913 fc13 f60f f523 0e2f fa1f f12a
